{"config": {"layers": [{"config": {"batch_input_shape": [null, 160, 160, 3], "sparse": false, "dtype": "float32", "name": "input_2"}, "class_name": "InputLayer", "name": "input_2", "inbound_nodes": []}, {"config": {"batch_input_shape": [null, 160, 160, 3], "sparse": false, "dtype": "float32", "name": "input_3"}, "class_name": "InputLayer", "name": "input_3", "inbound_nodes": []}, {"config": {"output_layers": [["global_average_pooling2d_1", 0, 0]], "input_layers": [["input_1", 0, 0]], "layers": [{"config": {"batch_input_shape": [null, 160, 160, 3], "name": "input_1", "dtype": "float32", "sparse": false}, "class_name": "InputLayer", "inbound_nodes": [], "name": "input_1"}, {"config": {"data_format": "channels_last", "bias_initializer": {"config": {}, "class_name": "Zeros"}, "activity_regularizer": null, "use_bias": false, "padding": "valid", "dilation_rate": [1, 1], "bias_constraint": null, "trainable": true, "kernel_regularizer": null, "filters": 32, "name": "conv2d_1", "kernel_constraint": null, "kernel_size": [3, 3], "activation": "linear", "kernel_initializer": {"config": {"scale": 1.0, "seed": null, "mode": "fan_avg", "distribution": "uniform"}, "class_name": "VarianceScaling"}, "strides": [2, 2], "bias_regularizer": null}, "class_name": "Conv2D", "inbound_nodes": [[["input_1", 0, 0, {}]]], "name": "conv2d_1"}, {"config": {"moving_variance_initializer": {"config": {}, "class_name": "Ones"}, "gamma_constraint": null, "momentum": 0.99, "beta_regularizer": null, "center": true, "gamma_regularizer": null, "trainable": true, "gamma_initializer": {"config": {}, "class_name": "Ones"}, "scale": false, "beta_initializer": {"config": {}, "class_name": "Zeros"}, "name": "batch_normalization_1", "moving_mean_initializer": {"config": {}, "class_name": "Zeros"}, "epsilon": 0.001, "axis": 3, "beta_constraint": null}, "class_name": "BatchNormalization", "inbound_nodes": [[["conv2d_1", 0, 0, {}]]], "name": "batch_normalization_1"}, {"config": {"trainable": true, "activation": "relu", "name": "activation_1"}, "class_name": "Activation", "inbound_nodes": [[["batch_normalization_1", 0, 0, {}]]], "name": "activation_1"}, {"config": {"data_format": "channels_last", "bias_initializer": {"config": {}, "class_name": "Zeros"}, "activity_regularizer": null, "use_bias": false, "padding": "valid", "dilation_rate": [1, 1], "bias_constraint": null, "trainable": true, "kernel_regularizer": null, "filters": 32, "name": "conv2d_2", "kernel_constraint": null, "kernel_size": [3, 3], "activation": "linear", "kernel_initializer": {"config": {"scale": 1.0, "seed": null, "mode": "fan_avg", "distribution": "uniform"}, "class_name": "VarianceScaling"}, "strides": [1, 1], "bias_regularizer": null}, "class_name": "Conv2D", "inbound_nodes": [[["activation_1", 0, 0, {}]]], "name": "conv2d_2"}, {"config": {"moving_variance_initializer": {"config": {}, "class_name": "Ones"}, "gamma_constraint": null, "momentum": 0.99, "beta_regularizer": null, "center": true, "gamma_regularizer": null, "trainable": true, "gamma_initializer": {"config": {}, "class_name": "Ones"}, "scale": false, "beta_initializer": {"config": {}, "class_name": "Zeros"}, "name": "batch_normalization_2", "moving_mean_initializer": {"config": {}, "class_name": "Zeros"}, "epsilon": 0.001, "axis": 3, "beta_constraint": null}, "class_name": "BatchNormalization", "inbound_nodes": [[["conv2d_2", 0, 0, {}]]], "name": "batch_normalization_2"}, {"config": {"trainable": true, "activation": "relu", "name": "activation_2"}, "class_name": "Activation", "inbound_nodes": [[["batch_normalization_2", 0, 0, {}]]], "name": "activation_2"}, {"config": {"data_format": "channels_last", "bias_initializer": {"config": {}, "class_name": "Zeros"}, "activity_regularizer": null, "use_bias": false, "padding": "same", "dilation_rate": [1, 1], "bias_constraint": null, "trainable": true, "kernel_regularizer": null, "filters": 64, "name": "conv2d_3", "kernel_constraint": null, "kernel_size": [3, 3], "activation": "linear", "kernel_initializer": {"config": {"scale": 1.0, "seed": null, "mode": "fan_avg", "distribution": "uniform"}, "class_name": "VarianceScaling"}, "strides": [1, 1], "bias_regularizer": null}, "class_name": "Conv2D", "inbound_nodes": [[["activation_2", 0, 0, {}]]], "name": "conv2d_3"}, {"config": {"moving_variance_initializer": {"config": {}, "class_name": "Ones"}, "gamma_constraint": null, "momentum": 0.99, "beta_regularizer": null, "center": true, "gamma_regularizer": null, "trainable": true, "gamma_initializer": {"config": {}, "class_name": "Ones"}, "scale": false, "beta_initializer": {"config": {}, "class_name": "Zeros"}, "name": "batch_normalization_3", "moving_mean_initializer": {"config": {}, "class_name": "Zeros"}, "epsilon": 0.001, "axis": 3, "beta_constraint": null}, "class_name": "BatchNormalization", "inbound_nodes": [[["conv2d_3", 0, 0, {}]]], "name": "batch_normalization_3"}, {"config": {"trainable": true, "activation": "relu", "name": "activation_3"}, "class_name": "Activation", "inbound_nodes": [[["batch_normalization_3", 0, 0, {}]]], "name": "activation_3"}, {"config": {"trainable": true, "data_format": "channels_last", "name": "max_pooling2d_1", "pool_size": [3, 3], "padding": "valid", "strides": [2, 2]}, "class_name": "MaxPooling2D", "inbound_nodes": [[["activation_3", 0, 0, {}]]], "name": "max_pooling2d_1"}, {"config": {"data_format": "channels_last", "bias_initializer": {"config": {}, "class_name": "Zeros"}, "activity_regularizer": null, "use_bias": false, "padding": "valid", "dilation_rate": [1, 1], "bias_constraint": null, "trainable": true, "kernel_regularizer": null, "filters": 80, "name": "conv2d_4", "kernel_constraint": null, "kernel_size": [1, 1], "activation": "linear", "kernel_initializer": {"config": {"scale": 1.0, "seed": null, "mode": "fan_avg", "distribution": "uniform"}, "class_name": "VarianceScaling"}, "strides": [1, 1], "bias_regularizer": null}, "class_name": "Conv2D", "inbound_nodes": [[["max_pooling2d_1", 0, 0, {}]]], "name": "conv2d_4"}, {"config": {"moving_variance_initializer": {"config": {}, "class_name": "Ones"}, "gamma_constraint": null, "momentum": 0.99, "beta_regularizer": null, "center": true, "gamma_regularizer": null, "trainable": true, "gamma_initializer": {"config": {}, "class_name": "Ones"}, "scale": false, "beta_initializer": {"config": {}, "class_name": "Zeros"}, "name": "batch_normalization_4", "moving_mean_initializer": {"config": {}, "class_name": "Zeros"}, "epsilon": 0.001, "axis": 3, "beta_constraint": null}, "class_name": "BatchNormalization", "inbound_nodes": [[["conv2d_4", 0, 0, {}]]], "name": "batch_normalization_4"}, {"config": {"trainable": true, "activation": "relu", "name": "activation_4"}, "class_name": "Activation", "inbound_nodes": [[["batch_normalization_4", 0, 0, {}]]], "name": "activation_4"}, {"config": {"data_format": "channels_last", "bias_initializer": {"config": {}, "class_name": "Zeros"}, "activity_regularizer": null, "use_bias": false, "padding": "valid", "dilation_rate": [1, 1], "bias_constraint": null, "trainable": true, "kernel_regularizer": null, "filters": 192, "name": "conv2d_5", "kernel_constraint": null, "kernel_size": [3, 3], "activation": "linear", "kernel_initializer": {"config": {"scale": 1.0, "seed": null, "mode": "fan_avg", "distribution": "uniform"}, "class_name": "VarianceScaling"}, "strides": [1, 1], "bias_regularizer": null}, "class_name": "Conv2D", "inbound_nodes": [[["activation_4", 0, 0, {}]]], "name": "conv2d_5"}, {"config": {"moving_variance_initializer": {"config": {}, "class_name": "Ones"}, "gamma_constraint": null, "momentum": 0.99, "beta_regularizer": null, "center": true, "gamma_regularizer": null, "trainable": true, "gamma_initializer": {"config": {}, "class_name": "Ones"}, "scale": false, "beta_initializer": {"config": {}, "class_name": "Zeros"}, "name": "batch_normalization_5", "moving_mean_initializer": {"config": {}, "class_name": "Zeros"}, "epsilon": 0.001, "axis": 3, "beta_constraint": null}, "class_name": "BatchNormalization", "inbound_nodes": [[["conv2d_5", 0, 0, {}]]], "name": "batch_normalization_5"}, {"config": {"trainable": true, "activation": "relu", "name": "activation_5"}, "class_name": "Activation", "inbound_nodes": [[["batch_normalization_5", 0, 0, {}]]], "name": "activation_5"}, {"config": {"trainable": true, "data_format": "channels_last", "name": "max_pooling2d_2", "pool_size": [3, 3], "padding": "valid", "strides": [2, 2]}, "class_name": "MaxPooling2D", "inbound_nodes": [[["activation_5", 0, 0, {}]]], "name": "max_pooling2d_2"}, {"config": {"data_format": "channels_last", "bias_initializer": {"config": {}, "class_name": "Zeros"}, "activity_regularizer": null, "use_bias": false, "padding": "same", "dilation_rate": [1, 1], "bias_constraint": null, "trainable": true, "kernel_regularizer": null, "filters": 64, "name": "conv2d_9", "kernel_constraint": null, "kernel_size": [1, 1], "activation": "linear", "kernel_initializer": {"config": {"scale": 1.0, "seed": null, "mode": "fan_avg", "distribution": "uniform"}, "class_name": "VarianceScaling"}, "strides": [1, 1], "bias_regularizer": null}, "class_name": "Conv2D", "inbound_nodes": [[["max_pooling2d_2", 0, 0, {}]]], "name": "conv2d_9"}, {"config": {"moving_variance_initializer": {"config": {}, "class_name": "Ones"}, "gamma_constraint": null, "momentum": 0.99, "beta_regularizer": null, "center": true, "gamma_regularizer": null, "trainable": true, "gamma_initializer": {"config": {}, "class_name": "Ones"}, "scale": false, "beta_initializer": {"config": {}, "class_name": "Zeros"}, "name": "batch_normalization_9", "moving_mean_initializer": {"config": {}, "class_name": "Zeros"}, "epsilon": 0.001, "axis": 3, "beta_constraint": null}, "class_name": "BatchNormalization", "inbound_nodes": [[["conv2d_9", 0, 0, {}]]], "name": "batch_normalization_9"}, {"config": {"trainable": true, "activation": "relu", "name": "activation_9"}, "class_name": "Activation", "inbound_nodes": [[["batch_normalization_9", 0, 0, {}]]], "name": "activation_9"}, {"config": {"data_format": "channels_last", "bias_initializer": {"config": {}, "class_name": "Zeros"}, "activity_regularizer": null, "use_bias": false, "padding": "same", "dilation_rate": [1, 1], "bias_constraint": null, "trainable": true, "kernel_regularizer": null, "filters": 48, "name": "conv2d_7", "kernel_constraint": null, "kernel_size": [1, 1], "activation": "linear", "kernel_initializer": {"config": {"scale": 1.0, "seed": null, "mode": "fan_avg", "distribution": "uniform"}, "class_name": "VarianceScaling"}, "strides": [1, 1], "bias_regularizer": null}, "class_name": "Conv2D", "inbound_nodes": [[["max_pooling2d_2", 0, 0, {}]]], "name": "conv2d_7"}, {"config": {"data_format": "channels_last", "bias_initializer": {"config": {}, "class_name": "Zeros"}, "activity_regularizer": null, "use_bias": false, "padding": "same", "dilation_rate": [1, 1], "bias_constraint": null, "trainable": true, "kernel_regularizer": null, "filters": 96, "name": "conv2d_10", "kernel_constraint": null, "kernel_size": [3, 3], "activation": "linear", "kernel_initializer": {"config": {"scale": 1.0, "seed": null, "mode": "fan_avg", "distribution": "uniform"}, "class_name": "VarianceScaling"}, "strides": [1, 1], "bias_regularizer": null}, "class_name": "Conv2D", "inbound_nodes": [[["activation_9", 0, 0, {}]]], "name": "conv2d_10"}, {"config": {"moving_variance_initializer": {"config": {}, "class_name": "Ones"}, "gamma_constraint": null, "momentum": 0.99, "beta_regularizer": null, "center": true, "gamma_regularizer": null, "trainable": true, "gamma_initializer": {"config": {}, "class_name": "Ones"}, "scale": false, "beta_initializer": {"config": {}, "class_name": "Zeros"}, "name": "batch_normalization_7", "moving_mean_initializer": {"config": {}, "class_name": "Zeros"}, "epsilon": 0.001, "axis": 3, "beta_constraint": null}, "class_name": "BatchNormalization", "inbound_nodes": [[["conv2d_7", 0, 0, {}]]], "name": "batch_normalization_7"}, {"config": {"moving_variance_initializer": {"config": {}, "class_name": "Ones"}, "gamma_constraint": null, "momentum": 0.99, "beta_regularizer": null, "center": true, "gamma_regularizer": null, "trainable": true, "gamma_initializer": {"config": {}, "class_name": "Ones"}, "scale": false, "beta_initializer": {"config": {}, "class_name": "Zeros"}, "name": "batch_normalization_10", "moving_mean_initializer": {"config": {}, "class_name": "Zeros"}, "epsilon": 0.001, "axis": 3, "beta_constraint": null}, "class_name": "BatchNormalization", "inbound_nodes": [[["conv2d_10", 0, 0, {}]]], "name": "batch_normalization_10"}, {"config": {"trainable": true, "activation": "relu", "name": "activation_7"}, "class_name": "Activation", "inbound_nodes": [[["batch_normalization_7", 0, 0, {}]]], "name": "activation_7"}, {"config": {"trainable": true, "activation": "relu", "name": "activation_10"}, "class_name": "Activation", "inbound_nodes": [[["batch_normalization_10", 0, 0, {}]]], "name": "activation_10"}, {"config": {"trainable": true, "data_format": "channels_last", "name": "average_pooling2d_1", "pool_size": [3, 3], "padding": "same", "strides": [1, 1]}, "class_name": "AveragePooling2D", "inbound_nodes": [[["max_pooling2d_2", 0, 0, {}]]], "name": "average_pooling2d_1"}, {"config": {"data_format": "channels_last", "bias_initializer": {"config": {}, "class_name": "Zeros"}, "activity_regularizer": null, "use_bias": false, "padding": "same", "dilation_rate": [1, 1], "bias_constraint": null, "trainable": true, "kernel_regularizer": null, "filters": 64, "name": "conv2d_6", "kernel_constraint": null, "kernel_size": [1, 1], "activation": "linear", "kernel_initializer": {"config": {"scale": 1.0, "seed": null, "mode": "fan_avg", "distribution": "uniform"}, "class_name": "VarianceScaling"}, "strides": [1, 1], "bias_regularizer": null}, "class_name": "Conv2D", "inbound_nodes": [[["max_pooling2d_2", 0, 0, {}]]], "name": "conv2d_6"}, {"config": {"data_format": "channels_last", "bias_initializer": {"config": {}, "class_name": "Zeros"}, "activity_regularizer": null, "use_bias": false, "padding": "same", "dilation_rate": [1, 1], "bias_constraint": null, "trainable": true, "kernel_regularizer": null, "filters": 64, "name": "conv2d_8", "kernel_constraint": null, "kernel_size": [5, 5], "activation": "linear", "kernel_initializer": {"config": {"scale": 1.0, "seed": null, "mode": "fan_avg", "distribution": "uniform"}, "class_name": "VarianceScaling"}, "strides": [1, 1], "bias_regularizer": null}, "class_name": "Conv2D", "inbound_nodes": [[["activation_7", 0, 0, {}]]], "name": "conv2d_8"}, {"config": {"data_format": "channels_last", "bias_initializer": {"config": {}, "class_name": "Zeros"}, "activity_regularizer": null, "use_bias": false, "padding": "same", "dilation_rate": [1, 1], "bias_constraint": null, "trainable": true, "kernel_regularizer": null, "filters": 96, "name": "conv2d_11", "kernel_constraint": null, "kernel_size": [3, 3], "activation": "linear", "kernel_initializer": {"config": {"scale": 1.0, "seed": null, "mode": "fan_avg", "distribution": "uniform"}, "class_name": "VarianceScaling"}, "strides": [1, 1], "bias_regularizer": null}, "class_name": "Conv2D", "inbound_nodes": [[["activation_10", 0, 0, {}]]], "name": "conv2d_11"}, {"config": {"data_format": "channels_last", "bias_initializer": {"config": {}, "class_name": "Zeros"}, "activity_regularizer": null, "use_bias": false, "padding": "same", "dilation_rate": [1, 1], "bias_constraint": null, "trainable": true, "kernel_regularizer": null, "filters": 32, "name": "conv2d_12", "kernel_constraint": null, "kernel_size": [1, 1], "activation": "linear", "kernel_initializer": {"config": {"scale": 1.0, "seed": null, "mode": "fan_avg", "distribution": "uniform"}, "class_name": "VarianceScaling"}, "strides": [1, 1], "bias_regularizer": null}, "class_name": "Conv2D", "inbound_nodes": [[["average_pooling2d_1", 0, 0, {}]]], "name": "conv2d_12"}, {"config": {"moving_variance_initializer": {"config": {}, "class_name": "Ones"}, "gamma_constraint": null, "momentum": 0.99, "beta_regularizer": null, "center": true, "gamma_regularizer": null, "trainable": true, "gamma_initializer": {"config": {}, "class_name": "Ones"}, "scale": false, "beta_initializer": {"config": {}, "class_name": "Zeros"}, "name": "batch_normalization_6", "moving_mean_initializer": {"config": {}, "class_name": "Zeros"}, "epsilon": 0.001, "axis": 3, "beta_constraint": null}, "class_name": "BatchNormalization", "inbound_nodes": [[["conv2d_6", 0, 0, {}]]], "name": "batch_normalization_6"}, {"config": {"moving_variance_initializer": {"config": {}, "class_name": "Ones"}, "gamma_constraint": null, "momentum": 0.99, "beta_regularizer": null, "center": true, "gamma_regularizer": null, "trainable": true, "gamma_initializer": {"config": {}, "class_name": "Ones"}, "scale": false, "beta_initializer": {"config": {}, "class_name": "Zeros"}, "name": "batch_normalization_8", "moving_mean_initializer": {"config": {}, "class_name": "Zeros"}, "epsilon": 0.001, "axis": 3, "beta_constraint": null}, "class_name": "BatchNormalization", "inbound_nodes": [[["conv2d_8", 0, 0, {}]]], "name": "batch_normalization_8"}, {"config": {"moving_variance_initializer": {"config": {}, "class_name": "Ones"}, "gamma_constraint": null, "momentum": 0.99, "beta_regularizer": null, "center": true, "gamma_regularizer": null, "trainable": true, "gamma_initializer": {"config": {}, "class_name": "Ones"}, "scale": false, "beta_initializer": {"config": {}, "class_name": "Zeros"}, "name": "batch_normalization_11", "moving_mean_initializer": {"config": {}, "class_name": "Zeros"}, "epsilon": 0.001, "axis": 3, "beta_constraint": null}, "class_name": "BatchNormalization", "inbound_nodes": [[["conv2d_11", 0, 0, {}]]], "name": "batch_normalization_11"}, {"config": {"moving_variance_initializer": {"config": {}, "class_name": "Ones"}, "gamma_constraint": null, "momentum": 0.99, "beta_regularizer": null, "center": true, "gamma_regularizer": null, "trainable": true, "gamma_initializer": {"config": {}, "class_name": "Ones"}, "scale": false, "beta_initializer": {"config": {}, "class_name": "Zeros"}, "name": "batch_normalization_12", "moving_mean_initializer": {"config": {}, "class_name": "Zeros"}, "epsilon": 0.001, "axis": 3, "beta_constraint": null}, "class_name": "BatchNormalization", "inbound_nodes": [[["conv2d_12", 0, 0, {}]]], "name": "batch_normalization_12"}, {"config": {"trainable": true, "activation": "relu", "name": "activation_6"}, "class_name": "Activation", "inbound_nodes": [[["batch_normalization_6", 0, 0, {}]]], "name": "activation_6"}, {"config": {"trainable": true, "activation": "relu", "name": "activation_8"}, "class_name": "Activation", "inbound_nodes": [[["batch_normalization_8", 0, 0, {}]]], "name": "activation_8"}, {"config": {"trainable": true, "activation": "relu", "name": "activation_11"}, "class_name": "Activation", "inbound_nodes": [[["batch_normalization_11", 0, 0, {}]]], "name": "activation_11"}, {"config": {"trainable": true, "activation": "relu", "name": "activation_12"}, "class_name": "Activation", "inbound_nodes": [[["batch_normalization_12", 0, 0, {}]]], "name": "activation_12"}, {"config": {"trainable": true, "axis": 3, "name": "mixed0"}, "class_name": "Concatenate", "inbound_nodes": [[["activation_6", 0, 0, {}], ["activation_8", 0, 0, {}], ["activation_11", 0, 0, {}], ["activation_12", 0, 0, {}]]], "name": "mixed0"}, {"config": {"data_format": "channels_last", "bias_initializer": {"config": {}, "class_name": "Zeros"}, "activity_regularizer": null, "use_bias": false, "padding": "same", "dilation_rate": [1, 1], "bias_constraint": null, "trainable": true, "kernel_regularizer": null, "filters": 64, "name": "conv2d_16", "kernel_constraint": null, "kernel_size": [1, 1], "activation": "linear", "kernel_initializer": {"config": {"scale": 1.0, "seed": null, "mode": "fan_avg", "distribution": "uniform"}, "class_name": "VarianceScaling"}, "strides": [1, 1], "bias_regularizer": null}, "class_name": "Conv2D", "inbound_nodes": [[["mixed0", 0, 0, {}]]], "name": "conv2d_16"}, {"config": {"moving_variance_initializer": {"config": {}, "class_name": "Ones"}, "gamma_constraint": null, "momentum": 0.99, "beta_regularizer": null, "center": true, "gamma_regularizer": null, "trainable": true, "gamma_initializer": {"config": {}, "class_name": "Ones"}, "scale": false, "beta_initializer": {"config": {}, "class_name": "Zeros"}, "name": "batch_normalization_16", "moving_mean_initializer": {"config": {}, "class_name": "Zeros"}, "epsilon": 0.001, "axis": 3, "beta_constraint": null}, "class_name": "BatchNormalization", "inbound_nodes": [[["conv2d_16", 0, 0, {}]]], "name": "batch_normalization_16"}, {"config": {"trainable": true, "activation": "relu", "name": "activation_16"}, "class_name": "Activation", "inbound_nodes": [[["batch_normalization_16", 0, 0, {}]]], "name": "activation_16"}, {"config": {"data_format": "channels_last", "bias_initializer": {"config": {}, "class_name": "Zeros"}, "activity_regularizer": null, "use_bias": false, "padding": "same", "dilation_rate": [1, 1], "bias_constraint": null, "trainable": true, "kernel_regularizer": null, "filters": 48, "name": "conv2d_14", "kernel_constraint": null, "kernel_size": [1, 1], "activation": "linear", "kernel_initializer": {"config": {"scale": 1.0, "seed": null, "mode": "fan_avg", "distribution": "uniform"}, "class_name": "VarianceScaling"}, "strides": [1, 1], "bias_regularizer": null}, "class_name": "Conv2D", "inbound_nodes": [[["mixed0", 0, 0, {}]]], "name": "conv2d_14"}, {"config": {"data_format": "channels_last", "bias_initializer": {"config": {}, "class_name": "Zeros"}, "activity_regularizer": null, "use_bias": false, "padding": "same", "dilation_rate": [1, 1], "bias_constraint": null, "trainable": true, "kernel_regularizer": null, "filters": 96, "name": "conv2d_17", "kernel_constraint": null, "kernel_size": [3, 3], "activation": "linear", "kernel_initializer": {"config": {"scale": 1.0, "seed": null, "mode": "fan_avg", "distribution": "uniform"}, "class_name": "VarianceScaling"}, "strides": [1, 1], "bias_regularizer": null}, "class_name": "Conv2D", "inbound_nodes": [[["activation_16", 0, 0, {}]]], "name": "conv2d_17"}, {"config": {"moving_variance_initializer": {"config": {}, "class_name": "Ones"}, "gamma_constraint": null, "momentum": 0.99, "beta_regularizer": null, "center": true, "gamma_regularizer": null, "trainable": true, "gamma_initializer": {"config": {}, "class_name": "Ones"}, "scale": false, "beta_initializer": {"config": {}, "class_name": "Zeros"}, "name": "batch_normalization_14", "moving_mean_initializer": {"config": {}, "class_name": "Zeros"}, "epsilon": 0.001, "axis": 3, "beta_constraint": null}, "class_name": "BatchNormalization", "inbound_nodes": [[["conv2d_14", 0, 0, {}]]], "name": "batch_normalization_14"}, {"config": {"moving_variance_initializer": {"config": {}, "class_name": "Ones"}, "gamma_constraint": null, "momentum": 0.99, "beta_regularizer": null, "center": true, "gamma_regularizer": null, "trainable": true, "gamma_initializer": {"config": {}, "class_name": "Ones"}, "scale": false, "beta_initializer": {"config": {}, "class_name": "Zeros"}, "name": "batch_normalization_17", "moving_mean_initializer": {"config": {}, "class_name": "Zeros"}, "epsilon": 0.001, "axis": 3, "beta_constraint": null}, "class_name": "BatchNormalization", "inbound_nodes": [[["conv2d_17", 0, 0, {}]]], "name": "batch_normalization_17"}, {"config": {"trainable": true, "activation": "relu", "name": "activation_14"}, "class_name": "Activation", "inbound_nodes": [[["batch_normalization_14", 0, 0, {}]]], "name": "activation_14"}, {"config": {"trainable": true, "activation": "relu", "name": "activation_17"}, "class_name": "Activation", "inbound_nodes": [[["batch_normalization_17", 0, 0, {}]]], "name": "activation_17"}, {"config": {"trainable": true, "data_format": "channels_last", "name": "average_pooling2d_2", "pool_size": [3, 3], "padding": "same", "strides": [1, 1]}, "class_name": "AveragePooling2D", "inbound_nodes": [[["mixed0", 0, 0, {}]]], "name": "average_pooling2d_2"}, {"config": {"data_format": "channels_last", "bias_initializer": {"config": {}, "class_name": "Zeros"}, "activity_regularizer": null, "use_bias": false, "padding": "same", "dilation_rate": [1, 1], "bias_constraint": null, "trainable": true, "kernel_regularizer": null, "filters": 64, "name": "conv2d_13", "kernel_constraint": null, "kernel_size": [1, 1], "activation": "linear", "kernel_initializer": {"config": {"scale": 1.0, "seed": null, "mode": "fan_avg", "distribution": "uniform"}, "class_name": "VarianceScaling"}, "strides": [1, 1], "bias_regularizer": null}, "class_name": "Conv2D", "inbound_nodes": [[["mixed0", 0, 0, {}]]], "name": "conv2d_13"}, {"config": {"data_format": "channels_last", "bias_initializer": {"config": {}, "class_name": "Zeros"}, "activity_regularizer": null, "use_bias": false, "padding": "same", "dilation_rate": [1, 1], "bias_constraint": null, "trainable": true, "kernel_regularizer": null, "filters": 64, "name": "conv2d_15", "kernel_constraint": null, "kernel_size": [5, 5], "activation": "linear", "kernel_initializer": {"config": {"scale": 1.0, "seed": null, "mode": "fan_avg", "distribution": "uniform"}, "class_name": "VarianceScaling"}, "strides": [1, 1], "bias_regularizer": null}, "class_name": "Conv2D", "inbound_nodes": [[["activation_14", 0, 0, {}]]], "name": "conv2d_15"}, {"config": {"data_format": "channels_last", "bias_initializer": {"config": {}, "class_name": "Zeros"}, "activity_regularizer": null, "use_bias": false, "padding": "same", "dilation_rate": [1, 1], "bias_constraint": null, "trainable": true, "kernel_regularizer": null, "filters": 96, "name": "conv2d_18", "kernel_constraint": null, "kernel_size": [3, 3], "activation": "linear", "kernel_initializer": {"config": {"scale": 1.0, "seed": null, "mode": "fan_avg", "distribution": "uniform"}, "class_name": "VarianceScaling"}, "strides": [1, 1], "bias_regularizer": null}, "class_name": "Conv2D", "inbound_nodes": [[["activation_17", 0, 0, {}]]], "name": "conv2d_18"}, {"config": {"data_format": "channels_last", "bias_initializer": {"config": {}, "class_name": "Zeros"}, "activity_regularizer": null, "use_bias": false, "padding": "same", "dilation_rate": [1, 1], "bias_constraint": null, "trainable": true, "kernel_regularizer": null, "filters": 64, "name": "conv2d_19", "kernel_constraint": null, "kernel_size": [1, 1], "activation": "linear", "kernel_initializer": {"config": {"scale": 1.0, "seed": null, "mode": "fan_avg", "distribution": "uniform"}, "class_name": "VarianceScaling"}, "strides": [1, 1], "bias_regularizer": null}, "class_name": "Conv2D", "inbound_nodes": [[["average_pooling2d_2", 0, 0, {}]]], "name": "conv2d_19"}, {"config": {"moving_variance_initializer": {"config": {}, "class_name": "Ones"}, "gamma_constraint": null, "momentum": 0.99, "beta_regularizer": null, "center": true, "gamma_regularizer": null, "trainable": true, "gamma_initializer": {"config": {}, "class_name": "Ones"}, "scale": false, "beta_initializer": {"config": {}, "class_name": "Zeros"}, "name": "batch_normalization_13", "moving_mean_initializer": {"config": {}, "class_name": "Zeros"}, "epsilon": 0.001, "axis": 3, "beta_constraint": null}, "class_name": "BatchNormalization", "inbound_nodes": [[["conv2d_13", 0, 0, {}]]], "name": "batch_normalization_13"}, {"config": {"moving_variance_initializer": {"config": {}, "class_name": "Ones"}, "gamma_constraint": null, "momentum": 0.99, "beta_regularizer": null, "center": true, "gamma_regularizer": null, "trainable": true, "gamma_initializer": {"config": {}, "class_name": "Ones"}, "scale": false, "beta_initializer": {"config": {}, "class_name": "Zeros"}, "name": "batch_normalization_15", "moving_mean_initializer": {"config": {}, "class_name": "Zeros"}, "epsilon": 0.001, "axis": 3, "beta_constraint": null}, "class_name": "BatchNormalization", "inbound_nodes": [[["conv2d_15", 0, 0, {}]]], "name": "batch_normalization_15"}, {"config": {"moving_variance_initializer": {"config": {}, "class_name": "Ones"}, "gamma_constraint": null, "momentum": 0.99, "beta_regularizer": null, "center": true, "gamma_regularizer": null, "trainable": true, "gamma_initializer": {"config": {}, "class_name": "Ones"}, "scale": false, "beta_initializer": {"config": {}, "class_name": "Zeros"}, "name": "batch_normalization_18", "moving_mean_initializer": {"config": {}, "class_name": "Zeros"}, "epsilon": 0.001, "axis": 3, "beta_constraint": null}, "class_name": "BatchNormalization", "inbound_nodes": [[["conv2d_18", 0, 0, {}]]], "name": "batch_normalization_18"}, {"config": {"moving_variance_initializer": {"config": {}, "class_name": "Ones"}, "gamma_constraint": null, "momentum": 0.99, "beta_regularizer": null, "center": true, "gamma_regularizer": null, "trainable": true, "gamma_initializer": {"config": {}, "class_name": "Ones"}, "scale": false, "beta_initializer": {"config": {}, "class_name": "Zeros"}, "name": "batch_normalization_19", "moving_mean_initializer": {"config": {}, "class_name": "Zeros"}, "epsilon": 0.001, "axis": 3, "beta_constraint": null}, "class_name": "BatchNormalization", "inbound_nodes": [[["conv2d_19", 0, 0, {}]]], "name": "batch_normalization_19"}, {"config": {"trainable": true, "activation": "relu", "name": "activation_13"}, "class_name": "Activation", "inbound_nodes": [[["batch_normalization_13", 0, 0, {}]]], "name": "activation_13"}, {"config": {"trainable": true, "activation": "relu", "name": "activation_15"}, "class_name": "Activation", "inbound_nodes": [[["batch_normalization_15", 0, 0, {}]]], "name": "activation_15"}, {"config": {"trainable": true, "activation": "relu", "name": "activation_18"}, "class_name": "Activation", "inbound_nodes": [[["batch_normalization_18", 0, 0, {}]]], "name": "activation_18"}, {"config": {"trainable": true, "activation": "relu", "name": "activation_19"}, "class_name": "Activation", "inbound_nodes": [[["batch_normalization_19", 0, 0, {}]]], "name": "activation_19"}, {"config": {"trainable": true, "axis": 3, "name": "mixed1"}, "class_name": "Concatenate", "inbound_nodes": [[["activation_13", 0, 0, {}], ["activation_15", 0, 0, {}], ["activation_18", 0, 0, {}], ["activation_19", 0, 0, {}]]], "name": "mixed1"}, {"config": {"data_format": "channels_last", "bias_initializer": {"config": {}, "class_name": "Zeros"}, "activity_regularizer": null, "use_bias": false, "padding": "same", "dilation_rate": [1, 1], "bias_constraint": null, "trainable": true, "kernel_regularizer": null, "filters": 64, "name": "conv2d_23", "kernel_constraint": null, "kernel_size": [1, 1], "activation": "linear", "kernel_initializer": {"config": {"scale": 1.0, "seed": null, "mode": "fan_avg", "distribution": "uniform"}, "class_name": "VarianceScaling"}, "strides": [1, 1], "bias_regularizer": null}, "class_name": "Conv2D", "inbound_nodes": [[["mixed1", 0, 0, {}]]], "name": "conv2d_23"}, {"config": {"moving_variance_initializer": {"config": {}, "class_name": "Ones"}, "gamma_constraint": null, "momentum": 0.99, "beta_regularizer": null, "center": true, "gamma_regularizer": null, "trainable": true, "gamma_initializer": {"config": {}, "class_name": "Ones"}, "scale": false, "beta_initializer": {"config": {}, "class_name": "Zeros"}, "name": "batch_normalization_23", "moving_mean_initializer": {"config": {}, "class_name": "Zeros"}, "epsilon": 0.001, "axis": 3, "beta_constraint": null}, "class_name": "BatchNormalization", "inbound_nodes": [[["conv2d_23", 0, 0, {}]]], "name": "batch_normalization_23"}, {"config": {"trainable": true, "activation": "relu", "name": "activation_23"}, "class_name": "Activation", "inbound_nodes": [[["batch_normalization_23", 0, 0, {}]]], "name": "activation_23"}, {"config": {"data_format": "channels_last", "bias_initializer": {"config": {}, "class_name": "Zeros"}, "activity_regularizer": null, "use_bias": false, "padding": "same", "dilation_rate": [1, 1], "bias_constraint": null, "trainable": true, "kernel_regularizer": null, "filters": 48, "name": "conv2d_21", "kernel_constraint": null, "kernel_size": [1, 1], "activation": "linear", "kernel_initializer": {"config": {"scale": 1.0, "seed": null, "mode": "fan_avg", "distribution": "uniform"}, "class_name": "VarianceScaling"}, "strides": [1, 1], "bias_regularizer": null}, "class_name": "Conv2D", "inbound_nodes": [[["mixed1", 0, 0, {}]]], "name": "conv2d_21"}, {"config": {"data_format": "channels_last", "bias_initializer": {"config": {}, "class_name": "Zeros"}, "activity_regularizer": null, "use_bias": false, "padding": "same", "dilation_rate": [1, 1], "bias_constraint": null, "trainable": true, "kernel_regularizer": null, "filters": 96, "name": "conv2d_24", "kernel_constraint": null, "kernel_size": [3, 3], "activation": "linear", "kernel_initializer": {"config": {"scale": 1.0, "seed": null, "mode": "fan_avg", "distribution": "uniform"}, "class_name": "VarianceScaling"}, "strides": [1, 1], "bias_regularizer": null}, "class_name": "Conv2D", "inbound_nodes": [[["activation_23", 0, 0, {}]]], "name": "conv2d_24"}, {"config": {"moving_variance_initializer": {"config": {}, "class_name": "Ones"}, "gamma_constraint": null, "momentum": 0.99, "beta_regularizer": null, "center": true, "gamma_regularizer": null, "trainable": true, "gamma_initializer": {"config": {}, "class_name": "Ones"}, "scale": false, "beta_initializer": {"config": {}, "class_name": "Zeros"}, "name": "batch_normalization_21", "moving_mean_initializer": {"config": {}, "class_name": "Zeros"}, "epsilon": 0.001, "axis": 3, "beta_constraint": null}, "class_name": "BatchNormalization", "inbound_nodes": [[["conv2d_21", 0, 0, {}]]], "name": "batch_normalization_21"}, {"config": {"moving_variance_initializer": {"config": {}, "class_name": "Ones"}, "gamma_constraint": null, "momentum": 0.99, "beta_regularizer": null, "center": true, "gamma_regularizer": null, "trainable": true, "gamma_initializer": {"config": {}, "class_name": "Ones"}, "scale": false, "beta_initializer": {"config": {}, "class_name": "Zeros"}, "name": "batch_normalization_24", "moving_mean_initializer": {"config": {}, "class_name": "Zeros"}, "epsilon": 0.001, "axis": 3, "beta_constraint": null}, "class_name": "BatchNormalization", "inbound_nodes": [[["conv2d_24", 0, 0, {}]]], "name": "batch_normalization_24"}, {"config": {"trainable": true, "activation": "relu", "name": "activation_21"}, "class_name": "Activation", "inbound_nodes": [[["batch_normalization_21", 0, 0, {}]]], "name": "activation_21"}, {"config": {"trainable": true, "activation": "relu", "name": "activation_24"}, "class_name": "Activation", "inbound_nodes": [[["batch_normalization_24", 0, 0, {}]]], "name": "activation_24"}, {"config": {"trainable": true, "data_format": "channels_last", "name": "average_pooling2d_3", "pool_size": [3, 3], "padding": "same", "strides": [1, 1]}, "class_name": "AveragePooling2D", "inbound_nodes": [[["mixed1", 0, 0, {}]]], "name": "average_pooling2d_3"}, {"config": {"data_format": "channels_last", "bias_initializer": {"config": {}, "class_name": "Zeros"}, "activity_regularizer": null, "use_bias": false, "padding": "same", "dilation_rate": [1, 1], "bias_constraint": null, "trainable": true, "kernel_regularizer": null, "filters": 64, "name": "conv2d_20", "kernel_constraint": null, "kernel_size": [1, 1], "activation": "linear", "kernel_initializer": {"config": {"scale": 1.0, "seed": null, "mode": "fan_avg", "distribution": "uniform"}, "class_name": "VarianceScaling"}, "strides": [1, 1], "bias_regularizer": null}, "class_name": "Conv2D", "inbound_nodes": [[["mixed1", 0, 0, {}]]], "name": "conv2d_20"}, {"config": {"data_format": "channels_last", "bias_initializer": {"config": {}, "class_name": "Zeros"}, "activity_regularizer": null, "use_bias": false, "padding": "same", "dilation_rate": [1, 1], "bias_constraint": null, "trainable": true, "kernel_regularizer": null, "filters": 64, "name": "conv2d_22", "kernel_constraint": null, "kernel_size": [5, 5], "activation": "linear", "kernel_initializer": {"config": {"scale": 1.0, "seed": null, "mode": "fan_avg", "distribution": "uniform"}, "class_name": "VarianceScaling"}, "strides": [1, 1], "bias_regularizer": null}, "class_name": "Conv2D", "inbound_nodes": [[["activation_21", 0, 0, {}]]], "name": "conv2d_22"}, {"config": {"data_format": "channels_last", "bias_initializer": {"config": {}, "class_name": "Zeros"}, "activity_regularizer": null, "use_bias": false, "padding": "same", "dilation_rate": [1, 1], "bias_constraint": null, "trainable": true, "kernel_regularizer": null, "filters": 96, "name": "conv2d_25", "kernel_constraint": null, "kernel_size": [3, 3], "activation": "linear", "kernel_initializer": {"config": {"scale": 1.0, "seed": null, "mode": "fan_avg", "distribution": "uniform"}, "class_name": "VarianceScaling"}, "strides": [1, 1], "bias_regularizer": null}, "class_name": "Conv2D", "inbound_nodes": [[["activation_24", 0, 0, {}]]], "name": "conv2d_25"}, {"config": {"data_format": "channels_last", "bias_initializer": {"config": {}, "class_name": "Zeros"}, "activity_regularizer": null, "use_bias": false, "padding": "same", "dilation_rate": [1, 1], "bias_constraint": null, "trainable": true, "kernel_regularizer": null, "filters": 64, "name": "conv2d_26", "kernel_constraint": null, "kernel_size": [1, 1], "activation": "linear", "kernel_initializer": {"config": {"scale": 1.0, "seed": null, "mode": "fan_avg", "distribution": "uniform"}, "class_name": "VarianceScaling"}, "strides": [1, 1], "bias_regularizer": null}, "class_name": "Conv2D", "inbound_nodes": [[["average_pooling2d_3", 0, 0, {}]]], "name": "conv2d_26"}, {"config": {"moving_variance_initializer": {"config": {}, "class_name": "Ones"}, "gamma_constraint": null, "momentum": 0.99, "beta_regularizer": null, "center": true, "gamma_regularizer": null, "trainable": true, "gamma_initializer": {"config": {}, "class_name": "Ones"}, "scale": false, "beta_initializer": {"config": {}, "class_name": "Zeros"}, "name": "batch_normalization_20", "moving_mean_initializer": {"config": {}, "class_name": "Zeros"}, "epsilon": 0.001, "axis": 3, "beta_constraint": null}, "class_name": "BatchNormalization", "inbound_nodes": [[["conv2d_20", 0, 0, {}]]], "name": "batch_normalization_20"}, {"config": {"moving_variance_initializer": {"config": {}, "class_name": "Ones"}, "gamma_constraint": null, "momentum": 0.99, "beta_regularizer": null, "center": true, "gamma_regularizer": null, "trainable": true, "gamma_initializer": {"config": {}, "class_name": "Ones"}, "scale": false, "beta_initializer": {"config": {}, "class_name": "Zeros"}, "name": "batch_normalization_22", "moving_mean_initializer": {"config": {}, "class_name": "Zeros"}, "epsilon": 0.001, "axis": 3, "beta_constraint": null}, "class_name": "BatchNormalization", "inbound_nodes": [[["conv2d_22", 0, 0, {}]]], "name": "batch_normalization_22"}, {"config": {"moving_variance_initializer": {"config": {}, "class_name": "Ones"}, "gamma_constraint": null, "momentum": 0.99, "beta_regularizer": null, "center": true, "gamma_regularizer": null, "trainable": true, "gamma_initializer": {"config": {}, "class_name": "Ones"}, "scale": false, "beta_initializer": {"config": {}, "class_name": "Zeros"}, "name": "batch_normalization_25", "moving_mean_initializer": {"config": {}, "class_name": "Zeros"}, "epsilon": 0.001, "axis": 3, "beta_constraint": null}, "class_name": "BatchNormalization", "inbound_nodes": [[["conv2d_25", 0, 0, {}]]], "name": "batch_normalization_25"}, {"config": {"moving_variance_initializer": {"config": {}, "class_name": "Ones"}, "gamma_constraint": null, "momentum": 0.99, "beta_regularizer": null, "center": true, "gamma_regularizer": null, "trainable": true, "gamma_initializer": {"config": {}, "class_name": "Ones"}, "scale": false, "beta_initializer": {"config": {}, "class_name": "Zeros"}, "name": "batch_normalization_26", "moving_mean_initializer": {"config": {}, "class_name": "Zeros"}, "epsilon": 0.001, "axis": 3, "beta_constraint": null}, "class_name": "BatchNormalization", "inbound_nodes": [[["conv2d_26", 0, 0, {}]]], "name": "batch_normalization_26"}, {"config": {"trainable": true, "activation": "relu", "name": "activation_20"}, "class_name": "Activation", "inbound_nodes": [[["batch_normalization_20", 0, 0, {}]]], "name": "activation_20"}, {"config": {"trainable": true, "activation": "relu", "name": "activation_22"}, "class_name": "Activation", "inbound_nodes": [[["batch_normalization_22", 0, 0, {}]]], "name": "activation_22"}, {"config": {"trainable": true, "activation": "relu", "name": "activation_25"}, "class_name": "Activation", "inbound_nodes": [[["batch_normalization_25", 0, 0, {}]]], "name": "activation_25"}, {"config": {"trainable": true, "activation": "relu", "name": "activation_26"}, "class_name": "Activation", "inbound_nodes": [[["batch_normalization_26", 0, 0, {}]]], "name": "activation_26"}, {"config": {"trainable": true, "axis": 3, "name": "mixed2"}, "class_name": "Concatenate", "inbound_nodes": [[["activation_20", 0, 0, {}], ["activation_22", 0, 0, {}], ["activation_25", 0, 0, {}], ["activation_26", 0, 0, {}]]], "name": "mixed2"}, {"config": {"data_format": "channels_last", "bias_initializer": {"config": {}, "class_name": "Zeros"}, "activity_regularizer": null, "use_bias": false, "padding": "same", "dilation_rate": [1, 1], "bias_constraint": null, "trainable": true, "kernel_regularizer": null, "filters": 64, "name": "conv2d_28", "kernel_constraint": null, "kernel_size": [1, 1], "activation": "linear", "kernel_initializer": {"config": {"scale": 1.0, "seed": null, "mode": "fan_avg", "distribution": "uniform"}, "class_name": "VarianceScaling"}, "strides": [1, 1], "bias_regularizer": null}, "class_name": "Conv2D", "inbound_nodes": [[["mixed2", 0, 0, {}]]], "name": "conv2d_28"}, {"config": {"moving_variance_initializer": {"config": {}, "class_name": "Ones"}, "gamma_constraint": null, "momentum": 0.99, "beta_regularizer": null, "center": true, "gamma_regularizer": null, "trainable": true, "gamma_initializer": {"config": {}, "class_name": "Ones"}, "scale": false, "beta_initializer": {"config": {}, "class_name": "Zeros"}, "name": "batch_normalization_28", "moving_mean_initializer": {"config": {}, "class_name": "Zeros"}, "epsilon": 0.001, "axis": 3, "beta_constraint": null}, "class_name": "BatchNormalization", "inbound_nodes": [[["conv2d_28", 0, 0, {}]]], "name": "batch_normalization_28"}, {"config": {"trainable": true, "activation": "relu", "name": "activation_28"}, "class_name": "Activation", "inbound_nodes": [[["batch_normalization_28", 0, 0, {}]]], "name": "activation_28"}, {"config": {"data_format": "channels_last", "bias_initializer": {"config": {}, "class_name": "Zeros"}, "activity_regularizer": null, "use_bias": false, "padding": "same", "dilation_rate": [1, 1], "bias_constraint": null, "trainable": true, "kernel_regularizer": null, "filters": 96, "name": "conv2d_29", "kernel_constraint": null, "kernel_size": [3, 3], "activation": "linear", "kernel_initializer": {"config": {"scale": 1.0, "seed": null, "mode": "fan_avg", "distribution": "uniform"}, "class_name": "VarianceScaling"}, "strides": [1, 1], "bias_regularizer": null}, "class_name": "Conv2D", "inbound_nodes": [[["activation_28", 0, 0, {}]]], "name": "conv2d_29"}, {"config": {"moving_variance_initializer": {"config": {}, "class_name": "Ones"}, "gamma_constraint": null, "momentum": 0.99, "beta_regularizer": null, "center": true, "gamma_regularizer": null, "trainable": true, "gamma_initializer": {"config": {}, "class_name": "Ones"}, "scale": false, "beta_initializer": {"config": {}, "class_name": "Zeros"}, "name": "batch_normalization_29", "moving_mean_initializer": {"config": {}, "class_name": "Zeros"}, "epsilon": 0.001, "axis": 3, "beta_constraint": null}, "class_name": "BatchNormalization", "inbound_nodes": [[["conv2d_29", 0, 0, {}]]], "name": "batch_normalization_29"}, {"config": {"trainable": true, "activation": "relu", "name": "activation_29"}, "class_name": "Activation", "inbound_nodes": [[["batch_normalization_29", 0, 0, {}]]], "name": "activation_29"}, {"config": {"data_format": "channels_last", "bias_initializer": {"config": {}, "class_name": "Zeros"}, "activity_regularizer": null, "use_bias": false, "padding": "valid", "dilation_rate": [1, 1], "bias_constraint": null, "trainable": true, "kernel_regularizer": null, "filters": 384, "name": "conv2d_27", "kernel_constraint": null, "kernel_size": [3, 3], "activation": "linear", "kernel_initializer": {"config": {"scale": 1.0, "seed": null, "mode": "fan_avg", "distribution": "uniform"}, "class_name": "VarianceScaling"}, "strides": [2, 2], "bias_regularizer": null}, "class_name": "Conv2D", "inbound_nodes": [[["mixed2", 0, 0, {}]]], "name": "conv2d_27"}, {"config": {"data_format": "channels_last", "bias_initializer": {"config": {}, "class_name": "Zeros"}, "activity_regularizer": null, "use_bias": false, "padding": "valid", "dilation_rate": [1, 1], "bias_constraint": null, "trainable": true, "kernel_regularizer": null, "filters": 96, "name": "conv2d_30", "kernel_constraint": null, "kernel_size": [3, 3], "activation": "linear", "kernel_initializer": {"config": {"scale": 1.0, "seed": null, "mode": "fan_avg", "distribution": "uniform"}, "class_name": "VarianceScaling"}, "strides": [2, 2], "bias_regularizer": null}, "class_name": "Conv2D", "inbound_nodes": [[["activation_29", 0, 0, {}]]], "name": "conv2d_30"}, {"config": {"moving_variance_initializer": {"config": {}, "class_name": "Ones"}, "gamma_constraint": null, "momentum": 0.99, "beta_regularizer": null, "center": true, "gamma_regularizer": null, "trainable": true, "gamma_initializer": {"config": {}, "class_name": "Ones"}, "scale": false, "beta_initializer": {"config": {}, "class_name": "Zeros"}, "name": "batch_normalization_27", "moving_mean_initializer": {"config": {}, "class_name": "Zeros"}, "epsilon": 0.001, "axis": 3, "beta_constraint": null}, "class_name": "BatchNormalization", "inbound_nodes": [[["conv2d_27", 0, 0, {}]]], "name": "batch_normalization_27"}, {"config": {"moving_variance_initializer": {"config": {}, "class_name": "Ones"}, "gamma_constraint": null, "momentum": 0.99, "beta_regularizer": null, "center": true, "gamma_regularizer": null, "trainable": true, "gamma_initializer": {"config": {}, "class_name": "Ones"}, "scale": false, "beta_initializer": {"config": {}, "class_name": "Zeros"}, "name": "batch_normalization_30", "moving_mean_initializer": {"config": {}, "class_name": "Zeros"}, "epsilon": 0.001, "axis": 3, "beta_constraint": null}, "class_name": "BatchNormalization", "inbound_nodes": [[["conv2d_30", 0, 0, {}]]], "name": "batch_normalization_30"}, {"config": {"trainable": true, "activation": "relu", "name": "activation_27"}, "class_name": "Activation", "inbound_nodes": [[["batch_normalization_27", 0, 0, {}]]], "name": "activation_27"}, {"config": {"trainable": true, "activation": "relu", "name": "activation_30"}, "class_name": "Activation", "inbound_nodes": [[["batch_normalization_30", 0, 0, {}]]], "name": "activation_30"}, {"config": {"trainable": true, "data_format": "channels_last", "name": "max_pooling2d_3", "pool_size": [3, 3], "padding": "valid", "strides": [2, 2]}, "class_name": "MaxPooling2D", "inbound_nodes": [[["mixed2", 0, 0, {}]]], "name": "max_pooling2d_3"}, {"config": {"trainable": true, "axis": 3, "name": "mixed3"}, "class_name": "Concatenate", "inbound_nodes": [[["activation_27", 0, 0, {}], ["activation_30", 0, 0, {}], ["max_pooling2d_3", 0, 0, {}]]], "name": "mixed3"}, {"config": {"data_format": "channels_last", "bias_initializer": {"config": {}, "class_name": "Zeros"}, "activity_regularizer": null, "use_bias": false, "padding": "same", "dilation_rate": [1, 1], "bias_constraint": null, "trainable": true, "kernel_regularizer": null, "filters": 128, "name": "conv2d_35", "kernel_constraint": null, "kernel_size": [1, 1], "activation": "linear", "kernel_initializer": {"config": {"scale": 1.0, "seed": null, "mode": "fan_avg", "distribution": "uniform"}, "class_name": "VarianceScaling"}, "strides": [1, 1], "bias_regularizer": null}, "class_name": "Conv2D", "inbound_nodes": [[["mixed3", 0, 0, {}]]], "name": "conv2d_35"}, {"config": {"moving_variance_initializer": {"config": {}, "class_name": "Ones"}, "gamma_constraint": null, "momentum": 0.99, "beta_regularizer": null, "center": true, "gamma_regularizer": null, "trainable": true, "gamma_initializer": {"config": {}, "class_name": "Ones"}, "scale": false, "beta_initializer": {"config": {}, "class_name": "Zeros"}, "name": "batch_normalization_35", "moving_mean_initializer": {"config": {}, "class_name": "Zeros"}, "epsilon": 0.001, "axis": 3, "beta_constraint": null}, "class_name": "BatchNormalization", "inbound_nodes": [[["conv2d_35", 0, 0, {}]]], "name": "batch_normalization_35"}, {"config": {"trainable": true, "activation": "relu", "name": "activation_35"}, "class_name": "Activation", "inbound_nodes": [[["batch_normalization_35", 0, 0, {}]]], "name": "activation_35"}, {"config": {"data_format": "channels_last", "bias_initializer": {"config": {}, "class_name": "Zeros"}, "activity_regularizer": null, "use_bias": false, "padding": "same", "dilation_rate": [1, 1], "bias_constraint": null, "trainable": true, "kernel_regularizer": null, "filters": 128, "name": "conv2d_36", "kernel_constraint": null, "kernel_size": [7, 1], "activation": "linear", "kernel_initializer": {"config": {"scale": 1.0, "seed": null, "mode": "fan_avg", "distribution": "uniform"}, "class_name": "VarianceScaling"}, "strides": [1, 1], "bias_regularizer": null}, "class_name": "Conv2D", "inbound_nodes": [[["activation_35", 0, 0, {}]]], "name": "conv2d_36"}, {"config": {"moving_variance_initializer": {"config": {}, "class_name": "Ones"}, "gamma_constraint": null, "momentum": 0.99, "beta_regularizer": null, "center": true, "gamma_regularizer": null, "trainable": true, "gamma_initializer": {"config": {}, "class_name": "Ones"}, "scale": false, "beta_initializer": {"config": {}, "class_name": "Zeros"}, "name": "batch_normalization_36", "moving_mean_initializer": {"config": {}, "class_name": "Zeros"}, "epsilon": 0.001, "axis": 3, "beta_constraint": null}, "class_name": "BatchNormalization", "inbound_nodes": [[["conv2d_36", 0, 0, {}]]], "name": "batch_normalization_36"}, {"config": {"trainable": true, "activation": "relu", "name": "activation_36"}, "class_name": "Activation", "inbound_nodes": [[["batch_normalization_36", 0, 0, {}]]], "name": "activation_36"}, {"config": {"data_format": "channels_last", "bias_initializer": {"config": {}, "class_name": "Zeros"}, "activity_regularizer": null, "use_bias": false, "padding": "same", "dilation_rate": [1, 1], "bias_constraint": null, "trainable": true, "kernel_regularizer": null, "filters": 128, "name": "conv2d_32", "kernel_constraint": null, "kernel_size": [1, 1], "activation": "linear", "kernel_initializer": {"config": {"scale": 1.0, "seed": null, "mode": "fan_avg", "distribution": "uniform"}, "class_name": "VarianceScaling"}, "strides": [1, 1], "bias_regularizer": null}, "class_name": "Conv2D", "inbound_nodes": [[["mixed3", 0, 0, {}]]], "name": "conv2d_32"}, {"config": {"data_format": "channels_last", "bias_initializer": {"config": {}, "class_name": "Zeros"}, "activity_regularizer": null, "use_bias": false, "padding": "same", "dilation_rate": [1, 1], "bias_constraint": null, "trainable": true, "kernel_regularizer": null, "filters": 128, "name": "conv2d_37", "kernel_constraint": null, "kernel_size": [1, 7], "activation": "linear", "kernel_initializer": {"config": {"scale": 1.0, "seed": null, "mode": "fan_avg", "distribution": "uniform"}, "class_name": "VarianceScaling"}, "strides": [1, 1], "bias_regularizer": null}, "class_name": "Conv2D", "inbound_nodes": [[["activation_36", 0, 0, {}]]], "name": "conv2d_37"}, {"config": {"moving_variance_initializer": {"config": {}, "class_name": "Ones"}, "gamma_constraint": null, "momentum": 0.99, "beta_regularizer": null, "center": true, "gamma_regularizer": null, "trainable": true, "gamma_initializer": {"config": {}, "class_name": "Ones"}, "scale": false, "beta_initializer": {"config": {}, "class_name": "Zeros"}, "name": "batch_normalization_32", "moving_mean_initializer": {"config": {}, "class_name": "Zeros"}, "epsilon": 0.001, "axis": 3, "beta_constraint": null}, "class_name": "BatchNormalization", "inbound_nodes": [[["conv2d_32", 0, 0, {}]]], "name": "batch_normalization_32"}, {"config": {"moving_variance_initializer": {"config": {}, "class_name": "Ones"}, "gamma_constraint": null, "momentum": 0.99, "beta_regularizer": null, "center": true, "gamma_regularizer": null, "trainable": true, "gamma_initializer": {"config": {}, "class_name": "Ones"}, "scale": false, "beta_initializer": {"config": {}, "class_name": "Zeros"}, "name": "batch_normalization_37", "moving_mean_initializer": {"config": {}, "class_name": "Zeros"}, "epsilon": 0.001, "axis": 3, "beta_constraint": null}, "class_name": "BatchNormalization", "inbound_nodes": [[["conv2d_37", 0, 0, {}]]], "name": "batch_normalization_37"}, {"config": {"trainable": true, "activation": "relu", "name": "activation_32"}, "class_name": "Activation", "inbound_nodes": [[["batch_normalization_32", 0, 0, {}]]], "name": "activation_32"}, {"config": {"trainable": true, "activation": "relu", "name": "activation_37"}, "class_name": "Activation", "inbound_nodes": [[["batch_normalization_37", 0, 0, {}]]], "name": "activation_37"}, {"config": {"data_format": "channels_last", "bias_initializer": {"config": {}, "class_name": "Zeros"}, "activity_regularizer": null, "use_bias": false, "padding": "same", "dilation_rate": [1, 1], "bias_constraint": null, "trainable": true, "kernel_regularizer": null, "filters": 128, "name": "conv2d_33", "kernel_constraint": null, "kernel_size": [1, 7], "activation": "linear", "kernel_initializer": {"config": {"scale": 1.0, "seed": null, "mode": "fan_avg", "distribution": "uniform"}, "class_name": "VarianceScaling"}, "strides": [1, 1], "bias_regularizer": null}, "class_name": "Conv2D", "inbound_nodes": [[["activation_32", 0, 0, {}]]], "name": "conv2d_33"}, {"config": {"data_format": "channels_last", "bias_initializer": {"config": {}, "class_name": "Zeros"}, "activity_regularizer": null, "use_bias": false, "padding": "same", "dilation_rate": [1, 1], "bias_constraint": null, "trainable": true, "kernel_regularizer": null, "filters": 128, "name": "conv2d_38", "kernel_constraint": null, "kernel_size": [7, 1], "activation": "linear", "kernel_initializer": {"config": {"scale": 1.0, "seed": null, "mode": "fan_avg", "distribution": "uniform"}, "class_name": "VarianceScaling"}, "strides": [1, 1], "bias_regularizer": null}, "class_name": "Conv2D", "inbound_nodes": [[["activation_37", 0, 0, {}]]], "name": "conv2d_38"}, {"config": {"moving_variance_initializer": {"config": {}, "class_name": "Ones"}, "gamma_constraint": null, "momentum": 0.99, "beta_regularizer": null, "center": true, "gamma_regularizer": null, "trainable": true, "gamma_initializer": {"config": {}, "class_name": "Ones"}, "scale": false, "beta_initializer": {"config": {}, "class_name": "Zeros"}, "name": "batch_normalization_33", "moving_mean_initializer": {"config": {}, "class_name": "Zeros"}, "epsilon": 0.001, "axis": 3, "beta_constraint": null}, "class_name": "BatchNormalization", "inbound_nodes": [[["conv2d_33", 0, 0, {}]]], "name": "batch_normalization_33"}, {"config": {"moving_variance_initializer": {"config": {}, "class_name": "Ones"}, "gamma_constraint": null, "momentum": 0.99, "beta_regularizer": null, "center": true, "gamma_regularizer": null, "trainable": true, "gamma_initializer": {"config": {}, "class_name": "Ones"}, "scale": false, "beta_initializer": {"config": {}, "class_name": "Zeros"}, "name": "batch_normalization_38", "moving_mean_initializer": {"config": {}, "class_name": "Zeros"}, "epsilon": 0.001, "axis": 3, "beta_constraint": null}, "class_name": "BatchNormalization", "inbound_nodes": [[["conv2d_38", 0, 0, {}]]], "name": "batch_normalization_38"}, {"config": {"trainable": true, "activation": "relu", "name": "activation_33"}, "class_name": "Activation", "inbound_nodes": [[["batch_normalization_33", 0, 0, {}]]], "name": "activation_33"}, {"config": {"trainable": true, "activation": "relu", "name": "activation_38"}, "class_name": "Activation", "inbound_nodes": [[["batch_normalization_38", 0, 0, {}]]], "name": "activation_38"}, {"config": {"trainable": true, "data_format": "channels_last", "name": "average_pooling2d_4", "pool_size": [3, 3], "padding": "same", "strides": [1, 1]}, "class_name": "AveragePooling2D", "inbound_nodes": [[["mixed3", 0, 0, {}]]], "name": "average_pooling2d_4"}, {"config": {"data_format": "channels_last", "bias_initializer": {"config": {}, "class_name": "Zeros"}, "activity_regularizer": null, "use_bias": false, "padding": "same", "dilation_rate": [1, 1], "bias_constraint": null, "trainable": true, "kernel_regularizer": null, "filters": 192, "name": "conv2d_31", "kernel_constraint": null, "kernel_size": [1, 1], "activation": "linear", "kernel_initializer": {"config": {"scale": 1.0, "seed": null, "mode": "fan_avg", "distribution": "uniform"}, "class_name": "VarianceScaling"}, "strides": [1, 1], "bias_regularizer": null}, "class_name": "Conv2D", "inbound_nodes": [[["mixed3", 0, 0, {}]]], "name": "conv2d_31"}, {"config": {"data_format": "channels_last", "bias_initializer": {"config": {}, "class_name": "Zeros"}, "activity_regularizer": null, "use_bias": false, "padding": "same", "dilation_rate": [1, 1], "bias_constraint": null, "trainable": true, "kernel_regularizer": null, "filters": 192, "name": "conv2d_34", "kernel_constraint": null, "kernel_size": [7, 1], "activation": "linear", "kernel_initializer": {"config": {"scale": 1.0, "seed": null, "mode": "fan_avg", "distribution": "uniform"}, "class_name": "VarianceScaling"}, "strides": [1, 1], "bias_regularizer": null}, "class_name": "Conv2D", "inbound_nodes": [[["activation_33", 0, 0, {}]]], "name": "conv2d_34"}, {"config": {"data_format": "channels_last", "bias_initializer": {"config": {}, "class_name": "Zeros"}, "activity_regularizer": null, "use_bias": false, "padding": "same", "dilation_rate": [1, 1], "bias_constraint": null, "trainable": true, "kernel_regularizer": null, "filters": 192, "name": "conv2d_39", "kernel_constraint": null, "kernel_size": [1, 7], "activation": "linear", "kernel_initializer": {"config": {"scale": 1.0, "seed": null, "mode": "fan_avg", "distribution": "uniform"}, "class_name": "VarianceScaling"}, "strides": [1, 1], "bias_regularizer": null}, "class_name": "Conv2D", "inbound_nodes": [[["activation_38", 0, 0, {}]]], "name": "conv2d_39"}, {"config": {"data_format": "channels_last", "bias_initializer": {"config": {}, "class_name": "Zeros"}, "activity_regularizer": null, "use_bias": false, "padding": "same", "dilation_rate": [1, 1], "bias_constraint": null, "trainable": true, "kernel_regularizer": null, "filters": 192, "name": "conv2d_40", "kernel_constraint": null, "kernel_size": [1, 1], "activation": "linear", "kernel_initializer": {"config": {"scale": 1.0, "seed": null, "mode": "fan_avg", "distribution": "uniform"}, "class_name": "VarianceScaling"}, "strides": [1, 1], "bias_regularizer": null}, "class_name": "Conv2D", "inbound_nodes": [[["average_pooling2d_4", 0, 0, {}]]], "name": "conv2d_40"}, {"config": {"moving_variance_initializer": {"config": {}, "class_name": "Ones"}, "gamma_constraint": null, "momentum": 0.99, "beta_regularizer": null, "center": true, "gamma_regularizer": null, "trainable": true, "gamma_initializer": {"config": {}, "class_name": "Ones"}, "scale": false, "beta_initializer": {"config": {}, "class_name": "Zeros"}, "name": "batch_normalization_31", "moving_mean_initializer": {"config": {}, "class_name": "Zeros"}, "epsilon": 0.001, "axis": 3, "beta_constraint": null}, "class_name": "BatchNormalization", "inbound_nodes": [[["conv2d_31", 0, 0, {}]]], "name": "batch_normalization_31"}, {"config": {"moving_variance_initializer": {"config": {}, "class_name": "Ones"}, "gamma_constraint": null, "momentum": 0.99, "beta_regularizer": null, "center": true, "gamma_regularizer": null, "trainable": true, "gamma_initializer": {"config": {}, "class_name": "Ones"}, "scale": false, "beta_initializer": {"config": {}, "class_name": "Zeros"}, "name": "batch_normalization_34", "moving_mean_initializer": {"config": {}, "class_name": "Zeros"}, "epsilon": 0.001, "axis": 3, "beta_constraint": null}, "class_name": "BatchNormalization", "inbound_nodes": [[["conv2d_34", 0, 0, {}]]], "name": "batch_normalization_34"}, {"config": {"moving_variance_initializer": {"config": {}, "class_name": "Ones"}, "gamma_constraint": null, "momentum": 0.99, "beta_regularizer": null, "center": true, "gamma_regularizer": null, "trainable": true, "gamma_initializer": {"config": {}, "class_name": "Ones"}, "scale": false, "beta_initializer": {"config": {}, "class_name": "Zeros"}, "name": "batch_normalization_39", "moving_mean_initializer": {"config": {}, "class_name": "Zeros"}, "epsilon": 0.001, "axis": 3, "beta_constraint": null}, "class_name": "BatchNormalization", "inbound_nodes": [[["conv2d_39", 0, 0, {}]]], "name": "batch_normalization_39"}, {"config": {"moving_variance_initializer": {"config": {}, "class_name": "Ones"}, "gamma_constraint": null, "momentum": 0.99, "beta_regularizer": null, "center": true, "gamma_regularizer": null, "trainable": true, "gamma_initializer": {"config": {}, "class_name": "Ones"}, "scale": false, "beta_initializer": {"config": {}, "class_name": "Zeros"}, "name": "batch_normalization_40", "moving_mean_initializer": {"config": {}, "class_name": "Zeros"}, "epsilon": 0.001, "axis": 3, "beta_constraint": null}, "class_name": "BatchNormalization", "inbound_nodes": [[["conv2d_40", 0, 0, {}]]], "name": "batch_normalization_40"}, {"config": {"trainable": true, "activation": "relu", "name": "activation_31"}, "class_name": "Activation", "inbound_nodes": [[["batch_normalization_31", 0, 0, {}]]], "name": "activation_31"}, {"config": {"trainable": true, "activation": "relu", "name": "activation_34"}, "class_name": "Activation", "inbound_nodes": [[["batch_normalization_34", 0, 0, {}]]], "name": "activation_34"}, {"config": {"trainable": true, "activation": "relu", "name": "activation_39"}, "class_name": "Activation", "inbound_nodes": [[["batch_normalization_39", 0, 0, {}]]], "name": "activation_39"}, {"config": {"trainable": true, "activation": "relu", "name": "activation_40"}, "class_name": "Activation", "inbound_nodes": [[["batch_normalization_40", 0, 0, {}]]], "name": "activation_40"}, {"config": {"trainable": true, "axis": 3, "name": "mixed4"}, "class_name": "Concatenate", "inbound_nodes": [[["activation_31", 0, 0, {}], ["activation_34", 0, 0, {}], ["activation_39", 0, 0, {}], ["activation_40", 0, 0, {}]]], "name": "mixed4"}, {"config": {"data_format": "channels_last", "bias_initializer": {"config": {}, "class_name": "Zeros"}, "activity_regularizer": null, "use_bias": false, "padding": "same", "dilation_rate": [1, 1], "bias_constraint": null, "trainable": true, "kernel_regularizer": null, "filters": 160, "name": "conv2d_45", "kernel_constraint": null, "kernel_size": [1, 1], "activation": "linear", "kernel_initializer": {"config": {"scale": 1.0, "seed": null, "mode": "fan_avg", "distribution": "uniform"}, "class_name": "VarianceScaling"}, "strides": [1, 1], "bias_regularizer": null}, "class_name": "Conv2D", "inbound_nodes": [[["mixed4", 0, 0, {}]]], "name": "conv2d_45"}, {"config": {"moving_variance_initializer": {"config": {}, "class_name": "Ones"}, "gamma_constraint": null, "momentum": 0.99, "beta_regularizer": null, "center": true, "gamma_regularizer": null, "trainable": true, "gamma_initializer": {"config": {}, "class_name": "Ones"}, "scale": false, "beta_initializer": {"config": {}, "class_name": "Zeros"}, "name": "batch_normalization_45", "moving_mean_initializer": {"config": {}, "class_name": "Zeros"}, "epsilon": 0.001, "axis": 3, "beta_constraint": null}, "class_name": "BatchNormalization", "inbound_nodes": [[["conv2d_45", 0, 0, {}]]], "name": "batch_normalization_45"}, {"config": {"trainable": true, "activation": "relu", "name": "activation_45"}, "class_name": "Activation", "inbound_nodes": [[["batch_normalization_45", 0, 0, {}]]], "name": "activation_45"}, {"config": {"data_format": "channels_last", "bias_initializer": {"config": {}, "class_name": "Zeros"}, "activity_regularizer": null, "use_bias": false, "padding": "same", "dilation_rate": [1, 1], "bias_constraint": null, "trainable": true, "kernel_regularizer": null, "filters": 160, "name": "conv2d_46", "kernel_constraint": null, "kernel_size": [7, 1], "activation": "linear", "kernel_initializer": {"config": {"scale": 1.0, "seed": null, "mode": "fan_avg", "distribution": "uniform"}, "class_name": "VarianceScaling"}, "strides": [1, 1], "bias_regularizer": null}, "class_name": "Conv2D", "inbound_nodes": [[["activation_45", 0, 0, {}]]], "name": "conv2d_46"}, {"config": {"moving_variance_initializer": {"config": {}, "class_name": "Ones"}, "gamma_constraint": null, "momentum": 0.99, "beta_regularizer": null, "center": true, "gamma_regularizer": null, "trainable": true, "gamma_initializer": {"config": {}, "class_name": "Ones"}, "scale": false, "beta_initializer": {"config": {}, "class_name": "Zeros"}, "name": "batch_normalization_46", "moving_mean_initializer": {"config": {}, "class_name": "Zeros"}, "epsilon": 0.001, "axis": 3, "beta_constraint": null}, "class_name": "BatchNormalization", "inbound_nodes": [[["conv2d_46", 0, 0, {}]]], "name": "batch_normalization_46"}, {"config": {"trainable": true, "activation": "relu", "name": "activation_46"}, "class_name": "Activation", "inbound_nodes": [[["batch_normalization_46", 0, 0, {}]]], "name": "activation_46"}, {"config": {"data_format": "channels_last", "bias_initializer": {"config": {}, "class_name": "Zeros"}, "activity_regularizer": null, "use_bias": false, "padding": "same", "dilation_rate": [1, 1], "bias_constraint": null, "trainable": true, "kernel_regularizer": null, "filters": 160, "name": "conv2d_42", "kernel_constraint": null, "kernel_size": [1, 1], "activation": "linear", "kernel_initializer": {"config": {"scale": 1.0, "seed": null, "mode": "fan_avg", "distribution": "uniform"}, "class_name": "VarianceScaling"}, "strides": [1, 1], "bias_regularizer": null}, "class_name": "Conv2D", "inbound_nodes": [[["mixed4", 0, 0, {}]]], "name": "conv2d_42"}, {"config": {"data_format": "channels_last", "bias_initializer": {"config": {}, "class_name": "Zeros"}, "activity_regularizer": null, "use_bias": false, "padding": "same", "dilation_rate": [1, 1], "bias_constraint": null, "trainable": true, "kernel_regularizer": null, "filters": 160, "name": "conv2d_47", "kernel_constraint": null, "kernel_size": [1, 7], "activation": "linear", "kernel_initializer": {"config": {"scale": 1.0, "seed": null, "mode": "fan_avg", "distribution": "uniform"}, "class_name": "VarianceScaling"}, "strides": [1, 1], "bias_regularizer": null}, "class_name": "Conv2D", "inbound_nodes": [[["activation_46", 0, 0, {}]]], "name": "conv2d_47"}, {"config": {"moving_variance_initializer": {"config": {}, "class_name": "Ones"}, "gamma_constraint": null, "momentum": 0.99, "beta_regularizer": null, "center": true, "gamma_regularizer": null, "trainable": true, "gamma_initializer": {"config": {}, "class_name": "Ones"}, "scale": false, "beta_initializer": {"config": {}, "class_name": "Zeros"}, "name": "batch_normalization_42", "moving_mean_initializer": {"config": {}, "class_name": "Zeros"}, "epsilon": 0.001, "axis": 3, "beta_constraint": null}, "class_name": "BatchNormalization", "inbound_nodes": [[["conv2d_42", 0, 0, {}]]], "name": "batch_normalization_42"}, {"config": {"moving_variance_initializer": {"config": {}, "class_name": "Ones"}, "gamma_constraint": null, "momentum": 0.99, "beta_regularizer": null, "center": true, "gamma_regularizer": null, "trainable": true, "gamma_initializer": {"config": {}, "class_name": "Ones"}, "scale": false, "beta_initializer": {"config": {}, "class_name": "Zeros"}, "name": "batch_normalization_47", "moving_mean_initializer": {"config": {}, "class_name": "Zeros"}, "epsilon": 0.001, "axis": 3, "beta_constraint": null}, "class_name": "BatchNormalization", "inbound_nodes": [[["conv2d_47", 0, 0, {}]]], "name": "batch_normalization_47"}, {"config": {"trainable": true, "activation": "relu", "name": "activation_42"}, "class_name": "Activation", "inbound_nodes": [[["batch_normalization_42", 0, 0, {}]]], "name": "activation_42"}, {"config": {"trainable": true, "activation": "relu", "name": "activation_47"}, "class_name": "Activation", "inbound_nodes": [[["batch_normalization_47", 0, 0, {}]]], "name": "activation_47"}, {"config": {"data_format": "channels_last", "bias_initializer": {"config": {}, "class_name": "Zeros"}, "activity_regularizer": null, "use_bias": false, "padding": "same", "dilation_rate": [1, 1], "bias_constraint": null, "trainable": true, "kernel_regularizer": null, "filters": 160, "name": "conv2d_43", "kernel_constraint": null, "kernel_size": [1, 7], "activation": "linear", "kernel_initializer": {"config": {"scale": 1.0, "seed": null, "mode": "fan_avg", "distribution": "uniform"}, "class_name": "VarianceScaling"}, "strides": [1, 1], "bias_regularizer": null}, "class_name": "Conv2D", "inbound_nodes": [[["activation_42", 0, 0, {}]]], "name": "conv2d_43"}, {"config": {"data_format": "channels_last", "bias_initializer": {"config": {}, "class_name": "Zeros"}, "activity_regularizer": null, "use_bias": false, "padding": "same", "dilation_rate": [1, 1], "bias_constraint": null, "trainable": true, "kernel_regularizer": null, "filters": 160, "name": "conv2d_48", "kernel_constraint": null, "kernel_size": [7, 1], "activation": "linear", "kernel_initializer": {"config": {"scale": 1.0, "seed": null, "mode": "fan_avg", "distribution": "uniform"}, "class_name": "VarianceScaling"}, "strides": [1, 1], "bias_regularizer": null}, "class_name": "Conv2D", "inbound_nodes": [[["activation_47", 0, 0, {}]]], "name": "conv2d_48"}, {"config": {"moving_variance_initializer": {"config": {}, "class_name": "Ones"}, "gamma_constraint": null, "momentum": 0.99, "beta_regularizer": null, "center": true, "gamma_regularizer": null, "trainable": true, "gamma_initializer": {"config": {}, "class_name": "Ones"}, "scale": false, "beta_initializer": {"config": {}, "class_name": "Zeros"}, "name": "batch_normalization_43", "moving_mean_initializer": {"config": {}, "class_name": "Zeros"}, "epsilon": 0.001, "axis": 3, "beta_constraint": null}, "class_name": "BatchNormalization", "inbound_nodes": [[["conv2d_43", 0, 0, {}]]], "name": "batch_normalization_43"}, {"config": {"moving_variance_initializer": {"config": {}, "class_name": "Ones"}, "gamma_constraint": null, "momentum": 0.99, "beta_regularizer": null, "center": true, "gamma_regularizer": null, "trainable": true, "gamma_initializer": {"config": {}, "class_name": "Ones"}, "scale": false, "beta_initializer": {"config": {}, "class_name": "Zeros"}, "name": "batch_normalization_48", "moving_mean_initializer": {"config": {}, "class_name": "Zeros"}, "epsilon": 0.001, "axis": 3, "beta_constraint": null}, "class_name": "BatchNormalization", "inbound_nodes": [[["conv2d_48", 0, 0, {}]]], "name": "batch_normalization_48"}, {"config": {"trainable": true, "activation": "relu", "name": "activation_43"}, "class_name": "Activation", "inbound_nodes": [[["batch_normalization_43", 0, 0, {}]]], "name": "activation_43"}, {"config": {"trainable": true, "activation": "relu", "name": "activation_48"}, "class_name": "Activation", "inbound_nodes": [[["batch_normalization_48", 0, 0, {}]]], "name": "activation_48"}, {"config": {"trainable": true, "data_format": "channels_last", "name": "average_pooling2d_5", "pool_size": [3, 3], "padding": "same", "strides": [1, 1]}, "class_name": "AveragePooling2D", "inbound_nodes": [[["mixed4", 0, 0, {}]]], "name": "average_pooling2d_5"}, {"config": {"data_format": "channels_last", "bias_initializer": {"config": {}, "class_name": "Zeros"}, "activity_regularizer": null, "use_bias": false, "padding": "same", "dilation_rate": [1, 1], "bias_constraint": null, "trainable": true, "kernel_regularizer": null, "filters": 192, "name": "conv2d_41", "kernel_constraint": null, "kernel_size": [1, 1], "activation": "linear", "kernel_initializer": {"config": {"scale": 1.0, "seed": null, "mode": "fan_avg", "distribution": "uniform"}, "class_name": "VarianceScaling"}, "strides": [1, 1], "bias_regularizer": null}, "class_name": "Conv2D", "inbound_nodes": [[["mixed4", 0, 0, {}]]], "name": "conv2d_41"}, {"config": {"data_format": "channels_last", "bias_initializer": {"config": {}, "class_name": "Zeros"}, "activity_regularizer": null, "use_bias": false, "padding": "same", "dilation_rate": [1, 1], "bias_constraint": null, "trainable": true, "kernel_regularizer": null, "filters": 192, "name": "conv2d_44", "kernel_constraint": null, "kernel_size": [7, 1], "activation": "linear", "kernel_initializer": {"config": {"scale": 1.0, "seed": null, "mode": "fan_avg", "distribution": "uniform"}, "class_name": "VarianceScaling"}, "strides": [1, 1], "bias_regularizer": null}, "class_name": "Conv2D", "inbound_nodes": [[["activation_43", 0, 0, {}]]], "name": "conv2d_44"}, {"config": {"data_format": "channels_last", "bias_initializer": {"config": {}, "class_name": "Zeros"}, "activity_regularizer": null, "use_bias": false, "padding": "same", "dilation_rate": [1, 1], "bias_constraint": null, "trainable": true, "kernel_regularizer": null, "filters": 192, "name": "conv2d_49", "kernel_constraint": null, "kernel_size": [1, 7], "activation": "linear", "kernel_initializer": {"config": {"scale": 1.0, "seed": null, "mode": "fan_avg", "distribution": "uniform"}, "class_name": "VarianceScaling"}, "strides": [1, 1], "bias_regularizer": null}, "class_name": "Conv2D", "inbound_nodes": [[["activation_48", 0, 0, {}]]], "name": "conv2d_49"}, {"config": {"data_format": "channels_last", "bias_initializer": {"config": {}, "class_name": "Zeros"}, "activity_regularizer": null, "use_bias": false, "padding": "same", "dilation_rate": [1, 1], "bias_constraint": null, "trainable": true, "kernel_regularizer": null, "filters": 192, "name": "conv2d_50", "kernel_constraint": null, "kernel_size": [1, 1], "activation": "linear", "kernel_initializer": {"config": {"scale": 1.0, "seed": null, "mode": "fan_avg", "distribution": "uniform"}, "class_name": "VarianceScaling"}, "strides": [1, 1], "bias_regularizer": null}, "class_name": "Conv2D", "inbound_nodes": [[["average_pooling2d_5", 0, 0, {}]]], "name": "conv2d_50"}, {"config": {"moving_variance_initializer": {"config": {}, "class_name": "Ones"}, "gamma_constraint": null, "momentum": 0.99, "beta_regularizer": null, "center": true, "gamma_regularizer": null, "trainable": true, "gamma_initializer": {"config": {}, "class_name": "Ones"}, "scale": false, "beta_initializer": {"config": {}, "class_name": "Zeros"}, "name": "batch_normalization_41", "moving_mean_initializer": {"config": {}, "class_name": "Zeros"}, "epsilon": 0.001, "axis": 3, "beta_constraint": null}, "class_name": "BatchNormalization", "inbound_nodes": [[["conv2d_41", 0, 0, {}]]], "name": "batch_normalization_41"}, {"config": {"moving_variance_initializer": {"config": {}, "class_name": "Ones"}, "gamma_constraint": null, "momentum": 0.99, "beta_regularizer": null, "center": true, "gamma_regularizer": null, "trainable": true, "gamma_initializer": {"config": {}, "class_name": "Ones"}, "scale": false, "beta_initializer": {"config": {}, "class_name": "Zeros"}, "name": "batch_normalization_44", "moving_mean_initializer": {"config": {}, "class_name": "Zeros"}, "epsilon": 0.001, "axis": 3, "beta_constraint": null}, "class_name": "BatchNormalization", "inbound_nodes": [[["conv2d_44", 0, 0, {}]]], "name": "batch_normalization_44"}, {"config": {"moving_variance_initializer": {"config": {}, "class_name": "Ones"}, "gamma_constraint": null, "momentum": 0.99, "beta_regularizer": null, "center": true, "gamma_regularizer": null, "trainable": true, "gamma_initializer": {"config": {}, "class_name": "Ones"}, "scale": false, "beta_initializer": {"config": {}, "class_name": "Zeros"}, "name": "batch_normalization_49", "moving_mean_initializer": {"config": {}, "class_name": "Zeros"}, "epsilon": 0.001, "axis": 3, "beta_constraint": null}, "class_name": "BatchNormalization", "inbound_nodes": [[["conv2d_49", 0, 0, {}]]], "name": "batch_normalization_49"}, {"config": {"moving_variance_initializer": {"config": {}, "class_name": "Ones"}, "gamma_constraint": null, "momentum": 0.99, "beta_regularizer": null, "center": true, "gamma_regularizer": null, "trainable": true, "gamma_initializer": {"config": {}, "class_name": "Ones"}, "scale": false, "beta_initializer": {"config": {}, "class_name": "Zeros"}, "name": "batch_normalization_50", "moving_mean_initializer": {"config": {}, "class_name": "Zeros"}, "epsilon": 0.001, "axis": 3, "beta_constraint": null}, "class_name": "BatchNormalization", "inbound_nodes": [[["conv2d_50", 0, 0, {}]]], "name": "batch_normalization_50"}, {"config": {"trainable": true, "activation": "relu", "name": "activation_41"}, "class_name": "Activation", "inbound_nodes": [[["batch_normalization_41", 0, 0, {}]]], "name": "activation_41"}, {"config": {"trainable": true, "activation": "relu", "name": "activation_44"}, "class_name": "Activation", "inbound_nodes": [[["batch_normalization_44", 0, 0, {}]]], "name": "activation_44"}, {"config": {"trainable": true, "activation": "relu", "name": "activation_49"}, "class_name": "Activation", "inbound_nodes": [[["batch_normalization_49", 0, 0, {}]]], "name": "activation_49"}, {"config": {"trainable": true, "activation": "relu", "name": "activation_50"}, "class_name": "Activation", "inbound_nodes": [[["batch_normalization_50", 0, 0, {}]]], "name": "activation_50"}, {"config": {"trainable": true, "axis": 3, "name": "mixed5"}, "class_name": "Concatenate", "inbound_nodes": [[["activation_41", 0, 0, {}], ["activation_44", 0, 0, {}], ["activation_49", 0, 0, {}], ["activation_50", 0, 0, {}]]], "name": "mixed5"}, {"config": {"data_format": "channels_last", "bias_initializer": {"config": {}, "class_name": "Zeros"}, "activity_regularizer": null, "use_bias": false, "padding": "same", "dilation_rate": [1, 1], "bias_constraint": null, "trainable": true, "kernel_regularizer": null, "filters": 160, "name": "conv2d_55", "kernel_constraint": null, "kernel_size": [1, 1], "activation": "linear", "kernel_initializer": {"config": {"scale": 1.0, "seed": null, "mode": "fan_avg", "distribution": "uniform"}, "class_name": "VarianceScaling"}, "strides": [1, 1], "bias_regularizer": null}, "class_name": "Conv2D", "inbound_nodes": [[["mixed5", 0, 0, {}]]], "name": "conv2d_55"}, {"config": {"moving_variance_initializer": {"config": {}, "class_name": "Ones"}, "gamma_constraint": null, "momentum": 0.99, "beta_regularizer": null, "center": true, "gamma_regularizer": null, "trainable": true, "gamma_initializer": {"config": {}, "class_name": "Ones"}, "scale": false, "beta_initializer": {"config": {}, "class_name": "Zeros"}, "name": "batch_normalization_55", "moving_mean_initializer": {"config": {}, "class_name": "Zeros"}, "epsilon": 0.001, "axis": 3, "beta_constraint": null}, "class_name": "BatchNormalization", "inbound_nodes": [[["conv2d_55", 0, 0, {}]]], "name": "batch_normalization_55"}, {"config": {"trainable": true, "activation": "relu", "name": "activation_55"}, "class_name": "Activation", "inbound_nodes": [[["batch_normalization_55", 0, 0, {}]]], "name": "activation_55"}, {"config": {"data_format": "channels_last", "bias_initializer": {"config": {}, "class_name": "Zeros"}, "activity_regularizer": null, "use_bias": false, "padding": "same", "dilation_rate": [1, 1], "bias_constraint": null, "trainable": true, "kernel_regularizer": null, "filters": 160, "name": "conv2d_56", "kernel_constraint": null, "kernel_size": [7, 1], "activation": "linear", "kernel_initializer": {"config": {"scale": 1.0, "seed": null, "mode": "fan_avg", "distribution": "uniform"}, "class_name": "VarianceScaling"}, "strides": [1, 1], "bias_regularizer": null}, "class_name": "Conv2D", "inbound_nodes": [[["activation_55", 0, 0, {}]]], "name": "conv2d_56"}, {"config": {"moving_variance_initializer": {"config": {}, "class_name": "Ones"}, "gamma_constraint": null, "momentum": 0.99, "beta_regularizer": null, "center": true, "gamma_regularizer": null, "trainable": true, "gamma_initializer": {"config": {}, "class_name": "Ones"}, "scale": false, "beta_initializer": {"config": {}, "class_name": "Zeros"}, "name": "batch_normalization_56", "moving_mean_initializer": {"config": {}, "class_name": "Zeros"}, "epsilon": 0.001, "axis": 3, "beta_constraint": null}, "class_name": "BatchNormalization", "inbound_nodes": [[["conv2d_56", 0, 0, {}]]], "name": "batch_normalization_56"}, {"config": {"trainable": true, "activation": "relu", "name": "activation_56"}, "class_name": "Activation", "inbound_nodes": [[["batch_normalization_56", 0, 0, {}]]], "name": "activation_56"}, {"config": {"data_format": "channels_last", "bias_initializer": {"config": {}, "class_name": "Zeros"}, "activity_regularizer": null, "use_bias": false, "padding": "same", "dilation_rate": [1, 1], "bias_constraint": null, "trainable": true, "kernel_regularizer": null, "filters": 160, "name": "conv2d_52", "kernel_constraint": null, "kernel_size": [1, 1], "activation": "linear", "kernel_initializer": {"config": {"scale": 1.0, "seed": null, "mode": "fan_avg", "distribution": "uniform"}, "class_name": "VarianceScaling"}, "strides": [1, 1], "bias_regularizer": null}, "class_name": "Conv2D", "inbound_nodes": [[["mixed5", 0, 0, {}]]], "name": "conv2d_52"}, {"config": {"data_format": "channels_last", "bias_initializer": {"config": {}, "class_name": "Zeros"}, "activity_regularizer": null, "use_bias": false, "padding": "same", "dilation_rate": [1, 1], "bias_constraint": null, "trainable": true, "kernel_regularizer": null, "filters": 160, "name": "conv2d_57", "kernel_constraint": null, "kernel_size": [1, 7], "activation": "linear", "kernel_initializer": {"config": {"scale": 1.0, "seed": null, "mode": "fan_avg", "distribution": "uniform"}, "class_name": "VarianceScaling"}, "strides": [1, 1], "bias_regularizer": null}, "class_name": "Conv2D", "inbound_nodes": [[["activation_56", 0, 0, {}]]], "name": "conv2d_57"}, {"config": {"moving_variance_initializer": {"config": {}, "class_name": "Ones"}, "gamma_constraint": null, "momentum": 0.99, "beta_regularizer": null, "center": true, "gamma_regularizer": null, "trainable": true, "gamma_initializer": {"config": {}, "class_name": "Ones"}, "scale": false, "beta_initializer": {"config": {}, "class_name": "Zeros"}, "name": "batch_normalization_52", "moving_mean_initializer": {"config": {}, "class_name": "Zeros"}, "epsilon": 0.001, "axis": 3, "beta_constraint": null}, "class_name": "BatchNormalization", "inbound_nodes": [[["conv2d_52", 0, 0, {}]]], "name": "batch_normalization_52"}, {"config": {"moving_variance_initializer": {"config": {}, "class_name": "Ones"}, "gamma_constraint": null, "momentum": 0.99, "beta_regularizer": null, "center": true, "gamma_regularizer": null, "trainable": true, "gamma_initializer": {"config": {}, "class_name": "Ones"}, "scale": false, "beta_initializer": {"config": {}, "class_name": "Zeros"}, "name": "batch_normalization_57", "moving_mean_initializer": {"config": {}, "class_name": "Zeros"}, "epsilon": 0.001, "axis": 3, "beta_constraint": null}, "class_name": "BatchNormalization", "inbound_nodes": [[["conv2d_57", 0, 0, {}]]], "name": "batch_normalization_57"}, {"config": {"trainable": true, "activation": "relu", "name": "activation_52"}, "class_name": "Activation", "inbound_nodes": [[["batch_normalization_52", 0, 0, {}]]], "name": "activation_52"}, {"config": {"trainable": true, "activation": "relu", "name": "activation_57"}, "class_name": "Activation", "inbound_nodes": [[["batch_normalization_57", 0, 0, {}]]], "name": "activation_57"}, {"config": {"data_format": "channels_last", "bias_initializer": {"config": {}, "class_name": "Zeros"}, "activity_regularizer": null, "use_bias": false, "padding": "same", "dilation_rate": [1, 1], "bias_constraint": null, "trainable": true, "kernel_regularizer": null, "filters": 160, "name": "conv2d_53", "kernel_constraint": null, "kernel_size": [1, 7], "activation": "linear", "kernel_initializer": {"config": {"scale": 1.0, "seed": null, "mode": "fan_avg", "distribution": "uniform"}, "class_name": "VarianceScaling"}, "strides": [1, 1], "bias_regularizer": null}, "class_name": "Conv2D", "inbound_nodes": [[["activation_52", 0, 0, {}]]], "name": "conv2d_53"}, {"config": {"data_format": "channels_last", "bias_initializer": {"config": {}, "class_name": "Zeros"}, "activity_regularizer": null, "use_bias": false, "padding": "same", "dilation_rate": [1, 1], "bias_constraint": null, "trainable": true, "kernel_regularizer": null, "filters": 160, "name": "conv2d_58", "kernel_constraint": null, "kernel_size": [7, 1], "activation": "linear", "kernel_initializer": {"config": {"scale": 1.0, "seed": null, "mode": "fan_avg", "distribution": "uniform"}, "class_name": "VarianceScaling"}, "strides": [1, 1], "bias_regularizer": null}, "class_name": "Conv2D", "inbound_nodes": [[["activation_57", 0, 0, {}]]], "name": "conv2d_58"}, {"config": {"moving_variance_initializer": {"config": {}, "class_name": "Ones"}, "gamma_constraint": null, "momentum": 0.99, "beta_regularizer": null, "center": true, "gamma_regularizer": null, "trainable": true, "gamma_initializer": {"config": {}, "class_name": "Ones"}, "scale": false, "beta_initializer": {"config": {}, "class_name": "Zeros"}, "name": "batch_normalization_53", "moving_mean_initializer": {"config": {}, "class_name": "Zeros"}, "epsilon": 0.001, "axis": 3, "beta_constraint": null}, "class_name": "BatchNormalization", "inbound_nodes": [[["conv2d_53", 0, 0, {}]]], "name": "batch_normalization_53"}, {"config": {"moving_variance_initializer": {"config": {}, "class_name": "Ones"}, "gamma_constraint": null, "momentum": 0.99, "beta_regularizer": null, "center": true, "gamma_regularizer": null, "trainable": true, "gamma_initializer": {"config": {}, "class_name": "Ones"}, "scale": false, "beta_initializer": {"config": {}, "class_name": "Zeros"}, "name": "batch_normalization_58", "moving_mean_initializer": {"config": {}, "class_name": "Zeros"}, "epsilon": 0.001, "axis": 3, "beta_constraint": null}, "class_name": "BatchNormalization", "inbound_nodes": [[["conv2d_58", 0, 0, {}]]], "name": "batch_normalization_58"}, {"config": {"trainable": true, "activation": "relu", "name": "activation_53"}, "class_name": "Activation", "inbound_nodes": [[["batch_normalization_53", 0, 0, {}]]], "name": "activation_53"}, {"config": {"trainable": true, "activation": "relu", "name": "activation_58"}, "class_name": "Activation", "inbound_nodes": [[["batch_normalization_58", 0, 0, {}]]], "name": "activation_58"}, {"config": {"trainable": true, "data_format": "channels_last", "name": "average_pooling2d_6", "pool_size": [3, 3], "padding": "same", "strides": [1, 1]}, "class_name": "AveragePooling2D", "inbound_nodes": [[["mixed5", 0, 0, {}]]], "name": "average_pooling2d_6"}, {"config": {"data_format": "channels_last", "bias_initializer": {"config": {}, "class_name": "Zeros"}, "activity_regularizer": null, "use_bias": false, "padding": "same", "dilation_rate": [1, 1], "bias_constraint": null, "trainable": true, "kernel_regularizer": null, "filters": 192, "name": "conv2d_51", "kernel_constraint": null, "kernel_size": [1, 1], "activation": "linear", "kernel_initializer": {"config": {"scale": 1.0, "seed": null, "mode": "fan_avg", "distribution": "uniform"}, "class_name": "VarianceScaling"}, "strides": [1, 1], "bias_regularizer": null}, "class_name": "Conv2D", "inbound_nodes": [[["mixed5", 0, 0, {}]]], "name": "conv2d_51"}, {"config": {"data_format": "channels_last", "bias_initializer": {"config": {}, "class_name": "Zeros"}, "activity_regularizer": null, "use_bias": false, "padding": "same", "dilation_rate": [1, 1], "bias_constraint": null, "trainable": true, "kernel_regularizer": null, "filters": 192, "name": "conv2d_54", "kernel_constraint": null, "kernel_size": [7, 1], "activation": "linear", "kernel_initializer": {"config": {"scale": 1.0, "seed": null, "mode": "fan_avg", "distribution": "uniform"}, "class_name": "VarianceScaling"}, "strides": [1, 1], "bias_regularizer": null}, "class_name": "Conv2D", "inbound_nodes": [[["activation_53", 0, 0, {}]]], "name": "conv2d_54"}, {"config": {"data_format": "channels_last", "bias_initializer": {"config": {}, "class_name": "Zeros"}, "activity_regularizer": null, "use_bias": false, "padding": "same", "dilation_rate": [1, 1], "bias_constraint": null, "trainable": true, "kernel_regularizer": null, "filters": 192, "name": "conv2d_59", "kernel_constraint": null, "kernel_size": [1, 7], "activation": "linear", "kernel_initializer": {"config": {"scale": 1.0, "seed": null, "mode": "fan_avg", "distribution": "uniform"}, "class_name": "VarianceScaling"}, "strides": [1, 1], "bias_regularizer": null}, "class_name": "Conv2D", "inbound_nodes": [[["activation_58", 0, 0, {}]]], "name": "conv2d_59"}, {"config": {"data_format": "channels_last", "bias_initializer": {"config": {}, "class_name": "Zeros"}, "activity_regularizer": null, "use_bias": false, "padding": "same", "dilation_rate": [1, 1], "bias_constraint": null, "trainable": true, "kernel_regularizer": null, "filters": 192, "name": "conv2d_60", "kernel_constraint": null, "kernel_size": [1, 1], "activation": "linear", "kernel_initializer": {"config": {"scale": 1.0, "seed": null, "mode": "fan_avg", "distribution": "uniform"}, "class_name": "VarianceScaling"}, "strides": [1, 1], "bias_regularizer": null}, "class_name": "Conv2D", "inbound_nodes": [[["average_pooling2d_6", 0, 0, {}]]], "name": "conv2d_60"}, {"config": {"moving_variance_initializer": {"config": {}, "class_name": "Ones"}, "gamma_constraint": null, "momentum": 0.99, "beta_regularizer": null, "center": true, "gamma_regularizer": null, "trainable": true, "gamma_initializer": {"config": {}, "class_name": "Ones"}, "scale": false, "beta_initializer": {"config": {}, "class_name": "Zeros"}, "name": "batch_normalization_51", "moving_mean_initializer": {"config": {}, "class_name": "Zeros"}, "epsilon": 0.001, "axis": 3, "beta_constraint": null}, "class_name": "BatchNormalization", "inbound_nodes": [[["conv2d_51", 0, 0, {}]]], "name": "batch_normalization_51"}, {"config": {"moving_variance_initializer": {"config": {}, "class_name": "Ones"}, "gamma_constraint": null, "momentum": 0.99, "beta_regularizer": null, "center": true, "gamma_regularizer": null, "trainable": true, "gamma_initializer": {"config": {}, "class_name": "Ones"}, "scale": false, "beta_initializer": {"config": {}, "class_name": "Zeros"}, "name": "batch_normalization_54", "moving_mean_initializer": {"config": {}, "class_name": "Zeros"}, "epsilon": 0.001, "axis": 3, "beta_constraint": null}, "class_name": "BatchNormalization", "inbound_nodes": [[["conv2d_54", 0, 0, {}]]], "name": "batch_normalization_54"}, {"config": {"moving_variance_initializer": {"config": {}, "class_name": "Ones"}, "gamma_constraint": null, "momentum": 0.99, "beta_regularizer": null, "center": true, "gamma_regularizer": null, "trainable": true, "gamma_initializer": {"config": {}, "class_name": "Ones"}, "scale": false, "beta_initializer": {"config": {}, "class_name": "Zeros"}, "name": "batch_normalization_59", "moving_mean_initializer": {"config": {}, "class_name": "Zeros"}, "epsilon": 0.001, "axis": 3, "beta_constraint": null}, "class_name": "BatchNormalization", "inbound_nodes": [[["conv2d_59", 0, 0, {}]]], "name": "batch_normalization_59"}, {"config": {"moving_variance_initializer": {"config": {}, "class_name": "Ones"}, "gamma_constraint": null, "momentum": 0.99, "beta_regularizer": null, "center": true, "gamma_regularizer": null, "trainable": true, "gamma_initializer": {"config": {}, "class_name": "Ones"}, "scale": false, "beta_initializer": {"config": {}, "class_name": "Zeros"}, "name": "batch_normalization_60", "moving_mean_initializer": {"config": {}, "class_name": "Zeros"}, "epsilon": 0.001, "axis": 3, "beta_constraint": null}, "class_name": "BatchNormalization", "inbound_nodes": [[["conv2d_60", 0, 0, {}]]], "name": "batch_normalization_60"}, {"config": {"trainable": true, "activation": "relu", "name": "activation_51"}, "class_name": "Activation", "inbound_nodes": [[["batch_normalization_51", 0, 0, {}]]], "name": "activation_51"}, {"config": {"trainable": true, "activation": "relu", "name": "activation_54"}, "class_name": "Activation", "inbound_nodes": [[["batch_normalization_54", 0, 0, {}]]], "name": "activation_54"}, {"config": {"trainable": true, "activation": "relu", "name": "activation_59"}, "class_name": "Activation", "inbound_nodes": [[["batch_normalization_59", 0, 0, {}]]], "name": "activation_59"}, {"config": {"trainable": true, "activation": "relu", "name": "activation_60"}, "class_name": "Activation", "inbound_nodes": [[["batch_normalization_60", 0, 0, {}]]], "name": "activation_60"}, {"config": {"trainable": true, "axis": 3, "name": "mixed6"}, "class_name": "Concatenate", "inbound_nodes": [[["activation_51", 0, 0, {}], ["activation_54", 0, 0, {}], ["activation_59", 0, 0, {}], ["activation_60", 0, 0, {}]]], "name": "mixed6"}, {"config": {"data_format": "channels_last", "bias_initializer": {"config": {}, "class_name": "Zeros"}, "activity_regularizer": null, "use_bias": false, "padding": "same", "dilation_rate": [1, 1], "bias_constraint": null, "trainable": true, "kernel_regularizer": null, "filters": 192, "name": "conv2d_65", "kernel_constraint": null, "kernel_size": [1, 1], "activation": "linear", "kernel_initializer": {"config": {"scale": 1.0, "seed": null, "mode": "fan_avg", "distribution": "uniform"}, "class_name": "VarianceScaling"}, "strides": [1, 1], "bias_regularizer": null}, "class_name": "Conv2D", "inbound_nodes": [[["mixed6", 0, 0, {}]]], "name": "conv2d_65"}, {"config": {"moving_variance_initializer": {"config": {}, "class_name": "Ones"}, "gamma_constraint": null, "momentum": 0.99, "beta_regularizer": null, "center": true, "gamma_regularizer": null, "trainable": true, "gamma_initializer": {"config": {}, "class_name": "Ones"}, "scale": false, "beta_initializer": {"config": {}, "class_name": "Zeros"}, "name": "batch_normalization_65", "moving_mean_initializer": {"config": {}, "class_name": "Zeros"}, "epsilon": 0.001, "axis": 3, "beta_constraint": null}, "class_name": "BatchNormalization", "inbound_nodes": [[["conv2d_65", 0, 0, {}]]], "name": "batch_normalization_65"}, {"config": {"trainable": true, "activation": "relu", "name": "activation_65"}, "class_name": "Activation", "inbound_nodes": [[["batch_normalization_65", 0, 0, {}]]], "name": "activation_65"}, {"config": {"data_format": "channels_last", "bias_initializer": {"config": {}, "class_name": "Zeros"}, "activity_regularizer": null, "use_bias": false, "padding": "same", "dilation_rate": [1, 1], "bias_constraint": null, "trainable": true, "kernel_regularizer": null, "filters": 192, "name": "conv2d_66", "kernel_constraint": null, "kernel_size": [7, 1], "activation": "linear", "kernel_initializer": {"config": {"scale": 1.0, "seed": null, "mode": "fan_avg", "distribution": "uniform"}, "class_name": "VarianceScaling"}, "strides": [1, 1], "bias_regularizer": null}, "class_name": "Conv2D", "inbound_nodes": [[["activation_65", 0, 0, {}]]], "name": "conv2d_66"}, {"config": {"moving_variance_initializer": {"config": {}, "class_name": "Ones"}, "gamma_constraint": null, "momentum": 0.99, "beta_regularizer": null, "center": true, "gamma_regularizer": null, "trainable": true, "gamma_initializer": {"config": {}, "class_name": "Ones"}, "scale": false, "beta_initializer": {"config": {}, "class_name": "Zeros"}, "name": "batch_normalization_66", "moving_mean_initializer": {"config": {}, "class_name": "Zeros"}, "epsilon": 0.001, "axis": 3, "beta_constraint": null}, "class_name": "BatchNormalization", "inbound_nodes": [[["conv2d_66", 0, 0, {}]]], "name": "batch_normalization_66"}, {"config": {"trainable": true, "activation": "relu", "name": "activation_66"}, "class_name": "Activation", "inbound_nodes": [[["batch_normalization_66", 0, 0, {}]]], "name": "activation_66"}, {"config": {"data_format": "channels_last", "bias_initializer": {"config": {}, "class_name": "Zeros"}, "activity_regularizer": null, "use_bias": false, "padding": "same", "dilation_rate": [1, 1], "bias_constraint": null, "trainable": true, "kernel_regularizer": null, "filters": 192, "name": "conv2d_62", "kernel_constraint": null, "kernel_size": [1, 1], "activation": "linear", "kernel_initializer": {"config": {"scale": 1.0, "seed": null, "mode": "fan_avg", "distribution": "uniform"}, "class_name": "VarianceScaling"}, "strides": [1, 1], "bias_regularizer": null}, "class_name": "Conv2D", "inbound_nodes": [[["mixed6", 0, 0, {}]]], "name": "conv2d_62"}, {"config": {"data_format": "channels_last", "bias_initializer": {"config": {}, "class_name": "Zeros"}, "activity_regularizer": null, "use_bias": false, "padding": "same", "dilation_rate": [1, 1], "bias_constraint": null, "trainable": true, "kernel_regularizer": null, "filters": 192, "name": "conv2d_67", "kernel_constraint": null, "kernel_size": [1, 7], "activation": "linear", "kernel_initializer": {"config": {"scale": 1.0, "seed": null, "mode": "fan_avg", "distribution": "uniform"}, "class_name": "VarianceScaling"}, "strides": [1, 1], "bias_regularizer": null}, "class_name": "Conv2D", "inbound_nodes": [[["activation_66", 0, 0, {}]]], "name": "conv2d_67"}, {"config": {"moving_variance_initializer": {"config": {}, "class_name": "Ones"}, "gamma_constraint": null, "momentum": 0.99, "beta_regularizer": null, "center": true, "gamma_regularizer": null, "trainable": true, "gamma_initializer": {"config": {}, "class_name": "Ones"}, "scale": false, "beta_initializer": {"config": {}, "class_name": "Zeros"}, "name": "batch_normalization_62", "moving_mean_initializer": {"config": {}, "class_name": "Zeros"}, "epsilon": 0.001, "axis": 3, "beta_constraint": null}, "class_name": "BatchNormalization", "inbound_nodes": [[["conv2d_62", 0, 0, {}]]], "name": "batch_normalization_62"}, {"config": {"moving_variance_initializer": {"config": {}, "class_name": "Ones"}, "gamma_constraint": null, "momentum": 0.99, "beta_regularizer": null, "center": true, "gamma_regularizer": null, "trainable": true, "gamma_initializer": {"config": {}, "class_name": "Ones"}, "scale": false, "beta_initializer": {"config": {}, "class_name": "Zeros"}, "name": "batch_normalization_67", "moving_mean_initializer": {"config": {}, "class_name": "Zeros"}, "epsilon": 0.001, "axis": 3, "beta_constraint": null}, "class_name": "BatchNormalization", "inbound_nodes": [[["conv2d_67", 0, 0, {}]]], "name": "batch_normalization_67"}, {"config": {"trainable": true, "activation": "relu", "name": "activation_62"}, "class_name": "Activation", "inbound_nodes": [[["batch_normalization_62", 0, 0, {}]]], "name": "activation_62"}, {"config": {"trainable": true, "activation": "relu", "name": "activation_67"}, "class_name": "Activation", "inbound_nodes": [[["batch_normalization_67", 0, 0, {}]]], "name": "activation_67"}, {"config": {"data_format": "channels_last", "bias_initializer": {"config": {}, "class_name": "Zeros"}, "activity_regularizer": null, "use_bias": false, "padding": "same", "dilation_rate": [1, 1], "bias_constraint": null, "trainable": true, "kernel_regularizer": null, "filters": 192, "name": "conv2d_63", "kernel_constraint": null, "kernel_size": [1, 7], "activation": "linear", "kernel_initializer": {"config": {"scale": 1.0, "seed": null, "mode": "fan_avg", "distribution": "uniform"}, "class_name": "VarianceScaling"}, "strides": [1, 1], "bias_regularizer": null}, "class_name": "Conv2D", "inbound_nodes": [[["activation_62", 0, 0, {}]]], "name": "conv2d_63"}, {"config": {"data_format": "channels_last", "bias_initializer": {"config": {}, "class_name": "Zeros"}, "activity_regularizer": null, "use_bias": false, "padding": "same", "dilation_rate": [1, 1], "bias_constraint": null, "trainable": true, "kernel_regularizer": null, "filters": 192, "name": "conv2d_68", "kernel_constraint": null, "kernel_size": [7, 1], "activation": "linear", "kernel_initializer": {"config": {"scale": 1.0, "seed": null, "mode": "fan_avg", "distribution": "uniform"}, "class_name": "VarianceScaling"}, "strides": [1, 1], "bias_regularizer": null}, "class_name": "Conv2D", "inbound_nodes": [[["activation_67", 0, 0, {}]]], "name": "conv2d_68"}, {"config": {"moving_variance_initializer": {"config": {}, "class_name": "Ones"}, "gamma_constraint": null, "momentum": 0.99, "beta_regularizer": null, "center": true, "gamma_regularizer": null, "trainable": true, "gamma_initializer": {"config": {}, "class_name": "Ones"}, "scale": false, "beta_initializer": {"config": {}, "class_name": "Zeros"}, "name": "batch_normalization_63", "moving_mean_initializer": {"config": {}, "class_name": "Zeros"}, "epsilon": 0.001, "axis": 3, "beta_constraint": null}, "class_name": "BatchNormalization", "inbound_nodes": [[["conv2d_63", 0, 0, {}]]], "name": "batch_normalization_63"}, {"config": {"moving_variance_initializer": {"config": {}, "class_name": "Ones"}, "gamma_constraint": null, "momentum": 0.99, "beta_regularizer": null, "center": true, "gamma_regularizer": null, "trainable": true, "gamma_initializer": {"config": {}, "class_name": "Ones"}, "scale": false, "beta_initializer": {"config": {}, "class_name": "Zeros"}, "name": "batch_normalization_68", "moving_mean_initializer": {"config": {}, "class_name": "Zeros"}, "epsilon": 0.001, "axis": 3, "beta_constraint": null}, "class_name": "BatchNormalization", "inbound_nodes": [[["conv2d_68", 0, 0, {}]]], "name": "batch_normalization_68"}, {"config": {"trainable": true, "activation": "relu", "name": "activation_63"}, "class_name": "Activation", "inbound_nodes": [[["batch_normalization_63", 0, 0, {}]]], "name": "activation_63"}, {"config": {"trainable": true, "activation": "relu", "name": "activation_68"}, "class_name": "Activation", "inbound_nodes": [[["batch_normalization_68", 0, 0, {}]]], "name": "activation_68"}, {"config": {"trainable": true, "data_format": "channels_last", "name": "average_pooling2d_7", "pool_size": [3, 3], "padding": "same", "strides": [1, 1]}, "class_name": "AveragePooling2D", "inbound_nodes": [[["mixed6", 0, 0, {}]]], "name": "average_pooling2d_7"}, {"config": {"data_format": "channels_last", "bias_initializer": {"config": {}, "class_name": "Zeros"}, "activity_regularizer": null, "use_bias": false, "padding": "same", "dilation_rate": [1, 1], "bias_constraint": null, "trainable": true, "kernel_regularizer": null, "filters": 192, "name": "conv2d_61", "kernel_constraint": null, "kernel_size": [1, 1], "activation": "linear", "kernel_initializer": {"config": {"scale": 1.0, "seed": null, "mode": "fan_avg", "distribution": "uniform"}, "class_name": "VarianceScaling"}, "strides": [1, 1], "bias_regularizer": null}, "class_name": "Conv2D", "inbound_nodes": [[["mixed6", 0, 0, {}]]], "name": "conv2d_61"}, {"config": {"data_format": "channels_last", "bias_initializer": {"config": {}, "class_name": "Zeros"}, "activity_regularizer": null, "use_bias": false, "padding": "same", "dilation_rate": [1, 1], "bias_constraint": null, "trainable": true, "kernel_regularizer": null, "filters": 192, "name": "conv2d_64", "kernel_constraint": null, "kernel_size": [7, 1], "activation": "linear", "kernel_initializer": {"config": {"scale": 1.0, "seed": null, "mode": "fan_avg", "distribution": "uniform"}, "class_name": "VarianceScaling"}, "strides": [1, 1], "bias_regularizer": null}, "class_name": "Conv2D", "inbound_nodes": [[["activation_63", 0, 0, {}]]], "name": "conv2d_64"}, {"config": {"data_format": "channels_last", "bias_initializer": {"config": {}, "class_name": "Zeros"}, "activity_regularizer": null, "use_bias": false, "padding": "same", "dilation_rate": [1, 1], "bias_constraint": null, "trainable": true, "kernel_regularizer": null, "filters": 192, "name": "conv2d_69", "kernel_constraint": null, "kernel_size": [1, 7], "activation": "linear", "kernel_initializer": {"config": {"scale": 1.0, "seed": null, "mode": "fan_avg", "distribution": "uniform"}, "class_name": "VarianceScaling"}, "strides": [1, 1], "bias_regularizer": null}, "class_name": "Conv2D", "inbound_nodes": [[["activation_68", 0, 0, {}]]], "name": "conv2d_69"}, {"config": {"data_format": "channels_last", "bias_initializer": {"config": {}, "class_name": "Zeros"}, "activity_regularizer": null, "use_bias": false, "padding": "same", "dilation_rate": [1, 1], "bias_constraint": null, "trainable": true, "kernel_regularizer": null, "filters": 192, "name": "conv2d_70", "kernel_constraint": null, "kernel_size": [1, 1], "activation": "linear", "kernel_initializer": {"config": {"scale": 1.0, "seed": null, "mode": "fan_avg", "distribution": "uniform"}, "class_name": "VarianceScaling"}, "strides": [1, 1], "bias_regularizer": null}, "class_name": "Conv2D", "inbound_nodes": [[["average_pooling2d_7", 0, 0, {}]]], "name": "conv2d_70"}, {"config": {"moving_variance_initializer": {"config": {}, "class_name": "Ones"}, "gamma_constraint": null, "momentum": 0.99, "beta_regularizer": null, "center": true, "gamma_regularizer": null, "trainable": true, "gamma_initializer": {"config": {}, "class_name": "Ones"}, "scale": false, "beta_initializer": {"config": {}, "class_name": "Zeros"}, "name": "batch_normalization_61", "moving_mean_initializer": {"config": {}, "class_name": "Zeros"}, "epsilon": 0.001, "axis": 3, "beta_constraint": null}, "class_name": "BatchNormalization", "inbound_nodes": [[["conv2d_61", 0, 0, {}]]], "name": "batch_normalization_61"}, {"config": {"moving_variance_initializer": {"config": {}, "class_name": "Ones"}, "gamma_constraint": null, "momentum": 0.99, "beta_regularizer": null, "center": true, "gamma_regularizer": null, "trainable": true, "gamma_initializer": {"config": {}, "class_name": "Ones"}, "scale": false, "beta_initializer": {"config": {}, "class_name": "Zeros"}, "name": "batch_normalization_64", "moving_mean_initializer": {"config": {}, "class_name": "Zeros"}, "epsilon": 0.001, "axis": 3, "beta_constraint": null}, "class_name": "BatchNormalization", "inbound_nodes": [[["conv2d_64", 0, 0, {}]]], "name": "batch_normalization_64"}, {"config": {"moving_variance_initializer": {"config": {}, "class_name": "Ones"}, "gamma_constraint": null, "momentum": 0.99, "beta_regularizer": null, "center": true, "gamma_regularizer": null, "trainable": true, "gamma_initializer": {"config": {}, "class_name": "Ones"}, "scale": false, "beta_initializer": {"config": {}, "class_name": "Zeros"}, "name": "batch_normalization_69", "moving_mean_initializer": {"config": {}, "class_name": "Zeros"}, "epsilon": 0.001, "axis": 3, "beta_constraint": null}, "class_name": "BatchNormalization", "inbound_nodes": [[["conv2d_69", 0, 0, {}]]], "name": "batch_normalization_69"}, {"config": {"moving_variance_initializer": {"config": {}, "class_name": "Ones"}, "gamma_constraint": null, "momentum": 0.99, "beta_regularizer": null, "center": true, "gamma_regularizer": null, "trainable": true, "gamma_initializer": {"config": {}, "class_name": "Ones"}, "scale": false, "beta_initializer": {"config": {}, "class_name": "Zeros"}, "name": "batch_normalization_70", "moving_mean_initializer": {"config": {}, "class_name": "Zeros"}, "epsilon": 0.001, "axis": 3, "beta_constraint": null}, "class_name": "BatchNormalization", "inbound_nodes": [[["conv2d_70", 0, 0, {}]]], "name": "batch_normalization_70"}, {"config": {"trainable": true, "activation": "relu", "name": "activation_61"}, "class_name": "Activation", "inbound_nodes": [[["batch_normalization_61", 0, 0, {}]]], "name": "activation_61"}, {"config": {"trainable": true, "activation": "relu", "name": "activation_64"}, "class_name": "Activation", "inbound_nodes": [[["batch_normalization_64", 0, 0, {}]]], "name": "activation_64"}, {"config": {"trainable": true, "activation": "relu", "name": "activation_69"}, "class_name": "Activation", "inbound_nodes": [[["batch_normalization_69", 0, 0, {}]]], "name": "activation_69"}, {"config": {"trainable": true, "activation": "relu", "name": "activation_70"}, "class_name": "Activation", "inbound_nodes": [[["batch_normalization_70", 0, 0, {}]]], "name": "activation_70"}, {"config": {"trainable": true, "axis": 3, "name": "mixed7"}, "class_name": "Concatenate", "inbound_nodes": [[["activation_61", 0, 0, {}], ["activation_64", 0, 0, {}], ["activation_69", 0, 0, {}], ["activation_70", 0, 0, {}]]], "name": "mixed7"}, {"config": {"data_format": "channels_last", "bias_initializer": {"config": {}, "class_name": "Zeros"}, "activity_regularizer": null, "use_bias": false, "padding": "same", "dilation_rate": [1, 1], "bias_constraint": null, "trainable": true, "kernel_regularizer": null, "filters": 192, "name": "conv2d_73", "kernel_constraint": null, "kernel_size": [1, 1], "activation": "linear", "kernel_initializer": {"config": {"scale": 1.0, "seed": null, "mode": "fan_avg", "distribution": "uniform"}, "class_name": "VarianceScaling"}, "strides": [1, 1], "bias_regularizer": null}, "class_name": "Conv2D", "inbound_nodes": [[["mixed7", 0, 0, {}]]], "name": "conv2d_73"}, {"config": {"moving_variance_initializer": {"config": {}, "class_name": "Ones"}, "gamma_constraint": null, "momentum": 0.99, "beta_regularizer": null, "center": true, "gamma_regularizer": null, "trainable": true, "gamma_initializer": {"config": {}, "class_name": "Ones"}, "scale": false, "beta_initializer": {"config": {}, "class_name": "Zeros"}, "name": "batch_normalization_73", "moving_mean_initializer": {"config": {}, "class_name": "Zeros"}, "epsilon": 0.001, "axis": 3, "beta_constraint": null}, "class_name": "BatchNormalization", "inbound_nodes": [[["conv2d_73", 0, 0, {}]]], "name": "batch_normalization_73"}, {"config": {"trainable": true, "activation": "relu", "name": "activation_73"}, "class_name": "Activation", "inbound_nodes": [[["batch_normalization_73", 0, 0, {}]]], "name": "activation_73"}, {"config": {"data_format": "channels_last", "bias_initializer": {"config": {}, "class_name": "Zeros"}, "activity_regularizer": null, "use_bias": false, "padding": "same", "dilation_rate": [1, 1], "bias_constraint": null, "trainable": true, "kernel_regularizer": null, "filters": 192, "name": "conv2d_74", "kernel_constraint": null, "kernel_size": [1, 7], "activation": "linear", "kernel_initializer": {"config": {"scale": 1.0, "seed": null, "mode": "fan_avg", "distribution": "uniform"}, "class_name": "VarianceScaling"}, "strides": [1, 1], "bias_regularizer": null}, "class_name": "Conv2D", "inbound_nodes": [[["activation_73", 0, 0, {}]]], "name": "conv2d_74"}, {"config": {"moving_variance_initializer": {"config": {}, "class_name": "Ones"}, "gamma_constraint": null, "momentum": 0.99, "beta_regularizer": null, "center": true, "gamma_regularizer": null, "trainable": true, "gamma_initializer": {"config": {}, "class_name": "Ones"}, "scale": false, "beta_initializer": {"config": {}, "class_name": "Zeros"}, "name": "batch_normalization_74", "moving_mean_initializer": {"config": {}, "class_name": "Zeros"}, "epsilon": 0.001, "axis": 3, "beta_constraint": null}, "class_name": "BatchNormalization", "inbound_nodes": [[["conv2d_74", 0, 0, {}]]], "name": "batch_normalization_74"}, {"config": {"trainable": true, "activation": "relu", "name": "activation_74"}, "class_name": "Activation", "inbound_nodes": [[["batch_normalization_74", 0, 0, {}]]], "name": "activation_74"}, {"config": {"data_format": "channels_last", "bias_initializer": {"config": {}, "class_name": "Zeros"}, "activity_regularizer": null, "use_bias": false, "padding": "same", "dilation_rate": [1, 1], "bias_constraint": null, "trainable": true, "kernel_regularizer": null, "filters": 192, "name": "conv2d_71", "kernel_constraint": null, "kernel_size": [1, 1], "activation": "linear", "kernel_initializer": {"config": {"scale": 1.0, "seed": null, "mode": "fan_avg", "distribution": "uniform"}, "class_name": "VarianceScaling"}, "strides": [1, 1], "bias_regularizer": null}, "class_name": "Conv2D", "inbound_nodes": [[["mixed7", 0, 0, {}]]], "name": "conv2d_71"}, {"config": {"data_format": "channels_last", "bias_initializer": {"config": {}, "class_name": "Zeros"}, "activity_regularizer": null, "use_bias": false, "padding": "same", "dilation_rate": [1, 1], "bias_constraint": null, "trainable": true, "kernel_regularizer": null, "filters": 192, "name": "conv2d_75", "kernel_constraint": null, "kernel_size": [7, 1], "activation": "linear", "kernel_initializer": {"config": {"scale": 1.0, "seed": null, "mode": "fan_avg", "distribution": "uniform"}, "class_name": "VarianceScaling"}, "strides": [1, 1], "bias_regularizer": null}, "class_name": "Conv2D", "inbound_nodes": [[["activation_74", 0, 0, {}]]], "name": "conv2d_75"}, {"config": {"moving_variance_initializer": {"config": {}, "class_name": "Ones"}, "gamma_constraint": null, "momentum": 0.99, "beta_regularizer": null, "center": true, "gamma_regularizer": null, "trainable": true, "gamma_initializer": {"config": {}, "class_name": "Ones"}, "scale": false, "beta_initializer": {"config": {}, "class_name": "Zeros"}, "name": "batch_normalization_71", "moving_mean_initializer": {"config": {}, "class_name": "Zeros"}, "epsilon": 0.001, "axis": 3, "beta_constraint": null}, "class_name": "BatchNormalization", "inbound_nodes": [[["conv2d_71", 0, 0, {}]]], "name": "batch_normalization_71"}, {"config": {"moving_variance_initializer": {"config": {}, "class_name": "Ones"}, "gamma_constraint": null, "momentum": 0.99, "beta_regularizer": null, "center": true, "gamma_regularizer": null, "trainable": true, "gamma_initializer": {"config": {}, "class_name": "Ones"}, "scale": false, "beta_initializer": {"config": {}, "class_name": "Zeros"}, "name": "batch_normalization_75", "moving_mean_initializer": {"config": {}, "class_name": "Zeros"}, "epsilon": 0.001, "axis": 3, "beta_constraint": null}, "class_name": "BatchNormalization", "inbound_nodes": [[["conv2d_75", 0, 0, {}]]], "name": "batch_normalization_75"}, {"config": {"trainable": true, "activation": "relu", "name": "activation_71"}, "class_name": "Activation", "inbound_nodes": [[["batch_normalization_71", 0, 0, {}]]], "name": "activation_71"}, {"config": {"trainable": true, "activation": "relu", "name": "activation_75"}, "class_name": "Activation", "inbound_nodes": [[["batch_normalization_75", 0, 0, {}]]], "name": "activation_75"}, {"config": {"data_format": "channels_last", "bias_initializer": {"config": {}, "class_name": "Zeros"}, "activity_regularizer": null, "use_bias": false, "padding": "valid", "dilation_rate": [1, 1], "bias_constraint": null, "trainable": true, "kernel_regularizer": null, "filters": 320, "name": "conv2d_72", "kernel_constraint": null, "kernel_size": [3, 3], "activation": "linear", "kernel_initializer": {"config": {"scale": 1.0, "seed": null, "mode": "fan_avg", "distribution": "uniform"}, "class_name": "VarianceScaling"}, "strides": [2, 2], "bias_regularizer": null}, "class_name": "Conv2D", "inbound_nodes": [[["activation_71", 0, 0, {}]]], "name": "conv2d_72"}, {"config": {"data_format": "channels_last", "bias_initializer": {"config": {}, "class_name": "Zeros"}, "activity_regularizer": null, "use_bias": false, "padding": "valid", "dilation_rate": [1, 1], "bias_constraint": null, "trainable": true, "kernel_regularizer": null, "filters": 192, "name": "conv2d_76", "kernel_constraint": null, "kernel_size": [3, 3], "activation": "linear", "kernel_initializer": {"config": {"scale": 1.0, "seed": null, "mode": "fan_avg", "distribution": "uniform"}, "class_name": "VarianceScaling"}, "strides": [2, 2], "bias_regularizer": null}, "class_name": "Conv2D", "inbound_nodes": [[["activation_75", 0, 0, {}]]], "name": "conv2d_76"}, {"config": {"moving_variance_initializer": {"config": {}, "class_name": "Ones"}, "gamma_constraint": null, "momentum": 0.99, "beta_regularizer": null, "center": true, "gamma_regularizer": null, "trainable": true, "gamma_initializer": {"config": {}, "class_name": "Ones"}, "scale": false, "beta_initializer": {"config": {}, "class_name": "Zeros"}, "name": "batch_normalization_72", "moving_mean_initializer": {"config": {}, "class_name": "Zeros"}, "epsilon": 0.001, "axis": 3, "beta_constraint": null}, "class_name": "BatchNormalization", "inbound_nodes": [[["conv2d_72", 0, 0, {}]]], "name": "batch_normalization_72"}, {"config": {"moving_variance_initializer": {"config": {}, "class_name": "Ones"}, "gamma_constraint": null, "momentum": 0.99, "beta_regularizer": null, "center": true, "gamma_regularizer": null, "trainable": true, "gamma_initializer": {"config": {}, "class_name": "Ones"}, "scale": false, "beta_initializer": {"config": {}, "class_name": "Zeros"}, "name": "batch_normalization_76", "moving_mean_initializer": {"config": {}, "class_name": "Zeros"}, "epsilon": 0.001, "axis": 3, "beta_constraint": null}, "class_name": "BatchNormalization", "inbound_nodes": [[["conv2d_76", 0, 0, {}]]], "name": "batch_normalization_76"}, {"config": {"trainable": true, "activation": "relu", "name": "activation_72"}, "class_name": "Activation", "inbound_nodes": [[["batch_normalization_72", 0, 0, {}]]], "name": "activation_72"}, {"config": {"trainable": true, "activation": "relu", "name": "activation_76"}, "class_name": "Activation", "inbound_nodes": [[["batch_normalization_76", 0, 0, {}]]], "name": "activation_76"}, {"config": {"trainable": true, "data_format": "channels_last", "name": "max_pooling2d_4", "pool_size": [3, 3], "padding": "valid", "strides": [2, 2]}, "class_name": "MaxPooling2D", "inbound_nodes": [[["mixed7", 0, 0, {}]]], "name": "max_pooling2d_4"}, {"config": {"trainable": true, "axis": 3, "name": "mixed8"}, "class_name": "Concatenate", "inbound_nodes": [[["activation_72", 0, 0, {}], ["activation_76", 0, 0, {}], ["max_pooling2d_4", 0, 0, {}]]], "name": "mixed8"}, {"config": {"data_format": "channels_last", "bias_initializer": {"config": {}, "class_name": "Zeros"}, "activity_regularizer": null, "use_bias": false, "padding": "same", "dilation_rate": [1, 1], "bias_constraint": null, "trainable": true, "kernel_regularizer": null, "filters": 448, "name": "conv2d_81", "kernel_constraint": null, "kernel_size": [1, 1], "activation": "linear", "kernel_initializer": {"config": {"scale": 1.0, "seed": null, "mode": "fan_avg", "distribution": "uniform"}, "class_name": "VarianceScaling"}, "strides": [1, 1], "bias_regularizer": null}, "class_name": "Conv2D", "inbound_nodes": [[["mixed8", 0, 0, {}]]], "name": "conv2d_81"}, {"config": {"moving_variance_initializer": {"config": {}, "class_name": "Ones"}, "gamma_constraint": null, "momentum": 0.99, "beta_regularizer": null, "center": true, "gamma_regularizer": null, "trainable": true, "gamma_initializer": {"config": {}, "class_name": "Ones"}, "scale": false, "beta_initializer": {"config": {}, "class_name": "Zeros"}, "name": "batch_normalization_81", "moving_mean_initializer": {"config": {}, "class_name": "Zeros"}, "epsilon": 0.001, "axis": 3, "beta_constraint": null}, "class_name": "BatchNormalization", "inbound_nodes": [[["conv2d_81", 0, 0, {}]]], "name": "batch_normalization_81"}, {"config": {"trainable": true, "activation": "relu", "name": "activation_81"}, "class_name": "Activation", "inbound_nodes": [[["batch_normalization_81", 0, 0, {}]]], "name": "activation_81"}, {"config": {"data_format": "channels_last", "bias_initializer": {"config": {}, "class_name": "Zeros"}, "activity_regularizer": null, "use_bias": false, "padding": "same", "dilation_rate": [1, 1], "bias_constraint": null, "trainable": true, "kernel_regularizer": null, "filters": 384, "name": "conv2d_78", "kernel_constraint": null, "kernel_size": [1, 1], "activation": "linear", "kernel_initializer": {"config": {"scale": 1.0, "seed": null, "mode": "fan_avg", "distribution": "uniform"}, "class_name": "VarianceScaling"}, "strides": [1, 1], "bias_regularizer": null}, "class_name": "Conv2D", "inbound_nodes": [[["mixed8", 0, 0, {}]]], "name": "conv2d_78"}, {"config": {"data_format": "channels_last", "bias_initializer": {"config": {}, "class_name": "Zeros"}, "activity_regularizer": null, "use_bias": false, "padding": "same", "dilation_rate": [1, 1], "bias_constraint": null, "trainable": true, "kernel_regularizer": null, "filters": 384, "name": "conv2d_82", "kernel_constraint": null, "kernel_size": [3, 3], "activation": "linear", "kernel_initializer": {"config": {"scale": 1.0, "seed": null, "mode": "fan_avg", "distribution": "uniform"}, "class_name": "VarianceScaling"}, "strides": [1, 1], "bias_regularizer": null}, "class_name": "Conv2D", "inbound_nodes": [[["activation_81", 0, 0, {}]]], "name": "conv2d_82"}, {"config": {"moving_variance_initializer": {"config": {}, "class_name": "Ones"}, "gamma_constraint": null, "momentum": 0.99, "beta_regularizer": null, "center": true, "gamma_regularizer": null, "trainable": true, "gamma_initializer": {"config": {}, "class_name": "Ones"}, "scale": false, "beta_initializer": {"config": {}, "class_name": "Zeros"}, "name": "batch_normalization_78", "moving_mean_initializer": {"config": {}, "class_name": "Zeros"}, "epsilon": 0.001, "axis": 3, "beta_constraint": null}, "class_name": "BatchNormalization", "inbound_nodes": [[["conv2d_78", 0, 0, {}]]], "name": "batch_normalization_78"}, {"config": {"moving_variance_initializer": {"config": {}, "class_name": "Ones"}, "gamma_constraint": null, "momentum": 0.99, "beta_regularizer": null, "center": true, "gamma_regularizer": null, "trainable": true, "gamma_initializer": {"config": {}, "class_name": "Ones"}, "scale": false, "beta_initializer": {"config": {}, "class_name": "Zeros"}, "name": "batch_normalization_82", "moving_mean_initializer": {"config": {}, "class_name": "Zeros"}, "epsilon": 0.001, "axis": 3, "beta_constraint": null}, "class_name": "BatchNormalization", "inbound_nodes": [[["conv2d_82", 0, 0, {}]]], "name": "batch_normalization_82"}, {"config": {"trainable": true, "activation": "relu", "name": "activation_78"}, "class_name": "Activation", "inbound_nodes": [[["batch_normalization_78", 0, 0, {}]]], "name": "activation_78"}, {"config": {"trainable": true, "activation": "relu", "name": "activation_82"}, "class_name": "Activation", "inbound_nodes": [[["batch_normalization_82", 0, 0, {}]]], "name": "activation_82"}, {"config": {"data_format": "channels_last", "bias_initializer": {"config": {}, "class_name": "Zeros"}, "activity_regularizer": null, "use_bias": false, "padding": "same", "dilation_rate": [1, 1], "bias_constraint": null, "trainable": true, "kernel_regularizer": null, "filters": 384, "name": "conv2d_79", "kernel_constraint": null, "kernel_size": [1, 3], "activation": "linear", "kernel_initializer": {"config": {"scale": 1.0, "seed": null, "mode": "fan_avg", "distribution": "uniform"}, "class_name": "VarianceScaling"}, "strides": [1, 1], "bias_regularizer": null}, "class_name": "Conv2D", "inbound_nodes": [[["activation_78", 0, 0, {}]]], "name": "conv2d_79"}, {"config": {"data_format": "channels_last", "bias_initializer": {"config": {}, "class_name": "Zeros"}, "activity_regularizer": null, "use_bias": false, "padding": "same", "dilation_rate": [1, 1], "bias_constraint": null, "trainable": true, "kernel_regularizer": null, "filters": 384, "name": "conv2d_80", "kernel_constraint": null, "kernel_size": [3, 1], "activation": "linear", "kernel_initializer": {"config": {"scale": 1.0, "seed": null, "mode": "fan_avg", "distribution": "uniform"}, "class_name": "VarianceScaling"}, "strides": [1, 1], "bias_regularizer": null}, "class_name": "Conv2D", "inbound_nodes": [[["activation_78", 0, 0, {}]]], "name": "conv2d_80"}, {"config": {"data_format": "channels_last", "bias_initializer": {"config": {}, "class_name": "Zeros"}, "activity_regularizer": null, "use_bias": false, "padding": "same", "dilation_rate": [1, 1], "bias_constraint": null, "trainable": true, "kernel_regularizer": null, "filters": 384, "name": "conv2d_83", "kernel_constraint": null, "kernel_size": [1, 3], "activation": "linear", "kernel_initializer": {"config": {"scale": 1.0, "seed": null, "mode": "fan_avg", "distribution": "uniform"}, "class_name": "VarianceScaling"}, "strides": [1, 1], "bias_regularizer": null}, "class_name": "Conv2D", "inbound_nodes": [[["activation_82", 0, 0, {}]]], "name": "conv2d_83"}, {"config": {"data_format": "channels_last", "bias_initializer": {"config": {}, "class_name": "Zeros"}, "activity_regularizer": null, "use_bias": false, "padding": "same", "dilation_rate": [1, 1], "bias_constraint": null, "trainable": true, "kernel_regularizer": null, "filters": 384, "name": "conv2d_84", "kernel_constraint": null, "kernel_size": [3, 1], "activation": "linear", "kernel_initializer": {"config": {"scale": 1.0, "seed": null, "mode": "fan_avg", "distribution": "uniform"}, "class_name": "VarianceScaling"}, "strides": [1, 1], "bias_regularizer": null}, "class_name": "Conv2D", "inbound_nodes": [[["activation_82", 0, 0, {}]]], "name": "conv2d_84"}, {"config": {"trainable": true, "data_format": "channels_last", "name": "average_pooling2d_8", "pool_size": [3, 3], "padding": "same", "strides": [1, 1]}, "class_name": "AveragePooling2D", "inbound_nodes": [[["mixed8", 0, 0, {}]]], "name": "average_pooling2d_8"}, {"config": {"data_format": "channels_last", "bias_initializer": {"config": {}, "class_name": "Zeros"}, "activity_regularizer": null, "use_bias": false, "padding": "same", "dilation_rate": [1, 1], "bias_constraint": null, "trainable": true, "kernel_regularizer": null, "filters": 320, "name": "conv2d_77", "kernel_constraint": null, "kernel_size": [1, 1], "activation": "linear", "kernel_initializer": {"config": {"scale": 1.0, "seed": null, "mode": "fan_avg", "distribution": "uniform"}, "class_name": "VarianceScaling"}, "strides": [1, 1], "bias_regularizer": null}, "class_name": "Conv2D", "inbound_nodes": [[["mixed8", 0, 0, {}]]], "name": "conv2d_77"}, {"config": {"moving_variance_initializer": {"config": {}, "class_name": "Ones"}, "gamma_constraint": null, "momentum": 0.99, "beta_regularizer": null, "center": true, "gamma_regularizer": null, "trainable": true, "gamma_initializer": {"config": {}, "class_name": "Ones"}, "scale": false, "beta_initializer": {"config": {}, "class_name": "Zeros"}, "name": "batch_normalization_79", "moving_mean_initializer": {"config": {}, "class_name": "Zeros"}, "epsilon": 0.001, "axis": 3, "beta_constraint": null}, "class_name": "BatchNormalization", "inbound_nodes": [[["conv2d_79", 0, 0, {}]]], "name": "batch_normalization_79"}, {"config": {"moving_variance_initializer": {"config": {}, "class_name": "Ones"}, "gamma_constraint": null, "momentum": 0.99, "beta_regularizer": null, "center": true, "gamma_regularizer": null, "trainable": true, "gamma_initializer": {"config": {}, "class_name": "Ones"}, "scale": false, "beta_initializer": {"config": {}, "class_name": "Zeros"}, "name": "batch_normalization_80", "moving_mean_initializer": {"config": {}, "class_name": "Zeros"}, "epsilon": 0.001, "axis": 3, "beta_constraint": null}, "class_name": "BatchNormalization", "inbound_nodes": [[["conv2d_80", 0, 0, {}]]], "name": "batch_normalization_80"}, {"config": {"moving_variance_initializer": {"config": {}, "class_name": "Ones"}, "gamma_constraint": null, "momentum": 0.99, "beta_regularizer": null, "center": true, "gamma_regularizer": null, "trainable": true, "gamma_initializer": {"config": {}, "class_name": "Ones"}, "scale": false, "beta_initializer": {"config": {}, "class_name": "Zeros"}, "name": "batch_normalization_83", "moving_mean_initializer": {"config": {}, "class_name": "Zeros"}, "epsilon": 0.001, "axis": 3, "beta_constraint": null}, "class_name": "BatchNormalization", "inbound_nodes": [[["conv2d_83", 0, 0, {}]]], "name": "batch_normalization_83"}, {"config": {"moving_variance_initializer": {"config": {}, "class_name": "Ones"}, "gamma_constraint": null, "momentum": 0.99, "beta_regularizer": null, "center": true, "gamma_regularizer": null, "trainable": true, "gamma_initializer": {"config": {}, "class_name": "Ones"}, "scale": false, "beta_initializer": {"config": {}, "class_name": "Zeros"}, "name": "batch_normalization_84", "moving_mean_initializer": {"config": {}, "class_name": "Zeros"}, "epsilon": 0.001, "axis": 3, "beta_constraint": null}, "class_name": "BatchNormalization", "inbound_nodes": [[["conv2d_84", 0, 0, {}]]], "name": "batch_normalization_84"}, {"config": {"data_format": "channels_last", "bias_initializer": {"config": {}, "class_name": "Zeros"}, "activity_regularizer": null, "use_bias": false, "padding": "same", "dilation_rate": [1, 1], "bias_constraint": null, "trainable": true, "kernel_regularizer": null, "filters": 192, "name": "conv2d_85", "kernel_constraint": null, "kernel_size": [1, 1], "activation": "linear", "kernel_initializer": {"config": {"scale": 1.0, "seed": null, "mode": "fan_avg", "distribution": "uniform"}, "class_name": "VarianceScaling"}, "strides": [1, 1], "bias_regularizer": null}, "class_name": "Conv2D", "inbound_nodes": [[["average_pooling2d_8", 0, 0, {}]]], "name": "conv2d_85"}, {"config": {"moving_variance_initializer": {"config": {}, "class_name": "Ones"}, "gamma_constraint": null, "momentum": 0.99, "beta_regularizer": null, "center": true, "gamma_regularizer": null, "trainable": true, "gamma_initializer": {"config": {}, "class_name": "Ones"}, "scale": false, "beta_initializer": {"config": {}, "class_name": "Zeros"}, "name": "batch_normalization_77", "moving_mean_initializer": {"config": {}, "class_name": "Zeros"}, "epsilon": 0.001, "axis": 3, "beta_constraint": null}, "class_name": "BatchNormalization", "inbound_nodes": [[["conv2d_77", 0, 0, {}]]], "name": "batch_normalization_77"}, {"config": {"trainable": true, "activation": "relu", "name": "activation_79"}, "class_name": "Activation", "inbound_nodes": [[["batch_normalization_79", 0, 0, {}]]], "name": "activation_79"}, {"config": {"trainable": true, "activation": "relu", "name": "activation_80"}, "class_name": "Activation", "inbound_nodes": [[["batch_normalization_80", 0, 0, {}]]], "name": "activation_80"}, {"config": {"trainable": true, "activation": "relu", "name": "activation_83"}, "class_name": "Activation", "inbound_nodes": [[["batch_normalization_83", 0, 0, {}]]], "name": "activation_83"}, {"config": {"trainable": true, "activation": "relu", "name": "activation_84"}, "class_name": "Activation", "inbound_nodes": [[["batch_normalization_84", 0, 0, {}]]], "name": "activation_84"}, {"config": {"moving_variance_initializer": {"config": {}, "class_name": "Ones"}, "gamma_constraint": null, "momentum": 0.99, "beta_regularizer": null, "center": true, "gamma_regularizer": null, "trainable": true, "gamma_initializer": {"config": {}, "class_name": "Ones"}, "scale": false, "beta_initializer": {"config": {}, "class_name": "Zeros"}, "name": "batch_normalization_85", "moving_mean_initializer": {"config": {}, "class_name": "Zeros"}, "epsilon": 0.001, "axis": 3, "beta_constraint": null}, "class_name": "BatchNormalization", "inbound_nodes": [[["conv2d_85", 0, 0, {}]]], "name": "batch_normalization_85"}, {"config": {"trainable": true, "activation": "relu", "name": "activation_77"}, "class_name": "Activation", "inbound_nodes": [[["batch_normalization_77", 0, 0, {}]]], "name": "activation_77"}, {"config": {"trainable": true, "axis": 3, "name": "mixed9_0"}, "class_name": "Concatenate", "inbound_nodes": [[["activation_79", 0, 0, {}], ["activation_80", 0, 0, {}]]], "name": "mixed9_0"}, {"config": {"trainable": true, "axis": 3, "name": "concatenate_1"}, "class_name": "Concatenate", "inbound_nodes": [[["activation_83", 0, 0, {}], ["activation_84", 0, 0, {}]]], "name": "concatenate_1"}, {"config": {"trainable": true, "activation": "relu", "name": "activation_85"}, "class_name": "Activation", "inbound_nodes": [[["batch_normalization_85", 0, 0, {}]]], "name": "activation_85"}, {"config": {"trainable": true, "axis": 3, "name": "mixed9"}, "class_name": "Concatenate", "inbound_nodes": [[["activation_77", 0, 0, {}], ["mixed9_0", 0, 0, {}], ["concatenate_1", 0, 0, {}], ["activation_85", 0, 0, {}]]], "name": "mixed9"}, {"config": {"data_format": "channels_last", "bias_initializer": {"config": {}, "class_name": "Zeros"}, "activity_regularizer": null, "use_bias": false, "padding": "same", "dilation_rate": [1, 1], "bias_constraint": null, "trainable": true, "kernel_regularizer": null, "filters": 448, "name": "conv2d_90", "kernel_constraint": null, "kernel_size": [1, 1], "activation": "linear", "kernel_initializer": {"config": {"scale": 1.0, "seed": null, "mode": "fan_avg", "distribution": "uniform"}, "class_name": "VarianceScaling"}, "strides": [1, 1], "bias_regularizer": null}, "class_name": "Conv2D", "inbound_nodes": [[["mixed9", 0, 0, {}]]], "name": "conv2d_90"}, {"config": {"moving_variance_initializer": {"config": {}, "class_name": "Ones"}, "gamma_constraint": null, "momentum": 0.99, "beta_regularizer": null, "center": true, "gamma_regularizer": null, "trainable": true, "gamma_initializer": {"config": {}, "class_name": "Ones"}, "scale": false, "beta_initializer": {"config": {}, "class_name": "Zeros"}, "name": "batch_normalization_90", "moving_mean_initializer": {"config": {}, "class_name": "Zeros"}, "epsilon": 0.001, "axis": 3, "beta_constraint": null}, "class_name": "BatchNormalization", "inbound_nodes": [[["conv2d_90", 0, 0, {}]]], "name": "batch_normalization_90"}, {"config": {"trainable": true, "activation": "relu", "name": "activation_90"}, "class_name": "Activation", "inbound_nodes": [[["batch_normalization_90", 0, 0, {}]]], "name": "activation_90"}, {"config": {"data_format": "channels_last", "bias_initializer": {"config": {}, "class_name": "Zeros"}, "activity_regularizer": null, "use_bias": false, "padding": "same", "dilation_rate": [1, 1], "bias_constraint": null, "trainable": true, "kernel_regularizer": null, "filters": 384, "name": "conv2d_87", "kernel_constraint": null, "kernel_size": [1, 1], "activation": "linear", "kernel_initializer": {"config": {"scale": 1.0, "seed": null, "mode": "fan_avg", "distribution": "uniform"}, "class_name": "VarianceScaling"}, "strides": [1, 1], "bias_regularizer": null}, "class_name": "Conv2D", "inbound_nodes": [[["mixed9", 0, 0, {}]]], "name": "conv2d_87"}, {"config": {"data_format": "channels_last", "bias_initializer": {"config": {}, "class_name": "Zeros"}, "activity_regularizer": null, "use_bias": false, "padding": "same", "dilation_rate": [1, 1], "bias_constraint": null, "trainable": true, "kernel_regularizer": null, "filters": 384, "name": "conv2d_91", "kernel_constraint": null, "kernel_size": [3, 3], "activation": "linear", "kernel_initializer": {"config": {"scale": 1.0, "seed": null, "mode": "fan_avg", "distribution": "uniform"}, "class_name": "VarianceScaling"}, "strides": [1, 1], "bias_regularizer": null}, "class_name": "Conv2D", "inbound_nodes": [[["activation_90", 0, 0, {}]]], "name": "conv2d_91"}, {"config": {"moving_variance_initializer": {"config": {}, "class_name": "Ones"}, "gamma_constraint": null, "momentum": 0.99, "beta_regularizer": null, "center": true, "gamma_regularizer": null, "trainable": true, "gamma_initializer": {"config": {}, "class_name": "Ones"}, "scale": false, "beta_initializer": {"config": {}, "class_name": "Zeros"}, "name": "batch_normalization_87", "moving_mean_initializer": {"config": {}, "class_name": "Zeros"}, "epsilon": 0.001, "axis": 3, "beta_constraint": null}, "class_name": "BatchNormalization", "inbound_nodes": [[["conv2d_87", 0, 0, {}]]], "name": "batch_normalization_87"}, {"config": {"moving_variance_initializer": {"config": {}, "class_name": "Ones"}, "gamma_constraint": null, "momentum": 0.99, "beta_regularizer": null, "center": true, "gamma_regularizer": null, "trainable": true, "gamma_initializer": {"config": {}, "class_name": "Ones"}, "scale": false, "beta_initializer": {"config": {}, "class_name": "Zeros"}, "name": "batch_normalization_91", "moving_mean_initializer": {"config": {}, "class_name": "Zeros"}, "epsilon": 0.001, "axis": 3, "beta_constraint": null}, "class_name": "BatchNormalization", "inbound_nodes": [[["conv2d_91", 0, 0, {}]]], "name": "batch_normalization_91"}, {"config": {"trainable": true, "activation": "relu", "name": "activation_87"}, "class_name": "Activation", "inbound_nodes": [[["batch_normalization_87", 0, 0, {}]]], "name": "activation_87"}, {"config": {"trainable": true, "activation": "relu", "name": "activation_91"}, "class_name": "Activation", "inbound_nodes": [[["batch_normalization_91", 0, 0, {}]]], "name": "activation_91"}, {"config": {"data_format": "channels_last", "bias_initializer": {"config": {}, "class_name": "Zeros"}, "activity_regularizer": null, "use_bias": false, "padding": "same", "dilation_rate": [1, 1], "bias_constraint": null, "trainable": true, "kernel_regularizer": null, "filters": 384, "name": "conv2d_88", "kernel_constraint": null, "kernel_size": [1, 3], "activation": "linear", "kernel_initializer": {"config": {"scale": 1.0, "seed": null, "mode": "fan_avg", "distribution": "uniform"}, "class_name": "VarianceScaling"}, "strides": [1, 1], "bias_regularizer": null}, "class_name": "Conv2D", "inbound_nodes": [[["activation_87", 0, 0, {}]]], "name": "conv2d_88"}, {"config": {"data_format": "channels_last", "bias_initializer": {"config": {}, "class_name": "Zeros"}, "activity_regularizer": null, "use_bias": false, "padding": "same", "dilation_rate": [1, 1], "bias_constraint": null, "trainable": true, "kernel_regularizer": null, "filters": 384, "name": "conv2d_89", "kernel_constraint": null, "kernel_size": [3, 1], "activation": "linear", "kernel_initializer": {"config": {"scale": 1.0, "seed": null, "mode": "fan_avg", "distribution": "uniform"}, "class_name": "VarianceScaling"}, "strides": [1, 1], "bias_regularizer": null}, "class_name": "Conv2D", "inbound_nodes": [[["activation_87", 0, 0, {}]]], "name": "conv2d_89"}, {"config": {"data_format": "channels_last", "bias_initializer": {"config": {}, "class_name": "Zeros"}, "activity_regularizer": null, "use_bias": false, "padding": "same", "dilation_rate": [1, 1], "bias_constraint": null, "trainable": true, "kernel_regularizer": null, "filters": 384, "name": "conv2d_92", "kernel_constraint": null, "kernel_size": [1, 3], "activation": "linear", "kernel_initializer": {"config": {"scale": 1.0, "seed": null, "mode": "fan_avg", "distribution": "uniform"}, "class_name": "VarianceScaling"}, "strides": [1, 1], "bias_regularizer": null}, "class_name": "Conv2D", "inbound_nodes": [[["activation_91", 0, 0, {}]]], "name": "conv2d_92"}, {"config": {"data_format": "channels_last", "bias_initializer": {"config": {}, "class_name": "Zeros"}, "activity_regularizer": null, "use_bias": false, "padding": "same", "dilation_rate": [1, 1], "bias_constraint": null, "trainable": true, "kernel_regularizer": null, "filters": 384, "name": "conv2d_93", "kernel_constraint": null, "kernel_size": [3, 1], "activation": "linear", "kernel_initializer": {"config": {"scale": 1.0, "seed": null, "mode": "fan_avg", "distribution": "uniform"}, "class_name": "VarianceScaling"}, "strides": [1, 1], "bias_regularizer": null}, "class_name": "Conv2D", "inbound_nodes": [[["activation_91", 0, 0, {}]]], "name": "conv2d_93"}, {"config": {"trainable": true, "data_format": "channels_last", "name": "average_pooling2d_9", "pool_size": [3, 3], "padding": "same", "strides": [1, 1]}, "class_name": "AveragePooling2D", "inbound_nodes": [[["mixed9", 0, 0, {}]]], "name": "average_pooling2d_9"}, {"config": {"data_format": "channels_last", "bias_initializer": {"config": {}, "class_name": "Zeros"}, "activity_regularizer": null, "use_bias": false, "padding": "same", "dilation_rate": [1, 1], "bias_constraint": null, "trainable": true, "kernel_regularizer": null, "filters": 320, "name": "conv2d_86", "kernel_constraint": null, "kernel_size": [1, 1], "activation": "linear", "kernel_initializer": {"config": {"scale": 1.0, "seed": null, "mode": "fan_avg", "distribution": "uniform"}, "class_name": "VarianceScaling"}, "strides": [1, 1], "bias_regularizer": null}, "class_name": "Conv2D", "inbound_nodes": [[["mixed9", 0, 0, {}]]], "name": "conv2d_86"}, {"config": {"moving_variance_initializer": {"config": {}, "class_name": "Ones"}, "gamma_constraint": null, "momentum": 0.99, "beta_regularizer": null, "center": true, "gamma_regularizer": null, "trainable": true, "gamma_initializer": {"config": {}, "class_name": "Ones"}, "scale": false, "beta_initializer": {"config": {}, "class_name": "Zeros"}, "name": "batch_normalization_88", "moving_mean_initializer": {"config": {}, "class_name": "Zeros"}, "epsilon": 0.001, "axis": 3, "beta_constraint": null}, "class_name": "BatchNormalization", "inbound_nodes": [[["conv2d_88", 0, 0, {}]]], "name": "batch_normalization_88"}, {"config": {"moving_variance_initializer": {"config": {}, "class_name": "Ones"}, "gamma_constraint": null, "momentum": 0.99, "beta_regularizer": null, "center": true, "gamma_regularizer": null, "trainable": true, "gamma_initializer": {"config": {}, "class_name": "Ones"}, "scale": false, "beta_initializer": {"config": {}, "class_name": "Zeros"}, "name": "batch_normalization_89", "moving_mean_initializer": {"config": {}, "class_name": "Zeros"}, "epsilon": 0.001, "axis": 3, "beta_constraint": null}, "class_name": "BatchNormalization", "inbound_nodes": [[["conv2d_89", 0, 0, {}]]], "name": "batch_normalization_89"}, {"config": {"moving_variance_initializer": {"config": {}, "class_name": "Ones"}, "gamma_constraint": null, "momentum": 0.99, "beta_regularizer": null, "center": true, "gamma_regularizer": null, "trainable": true, "gamma_initializer": {"config": {}, "class_name": "Ones"}, "scale": false, "beta_initializer": {"config": {}, "class_name": "Zeros"}, "name": "batch_normalization_92", "moving_mean_initializer": {"config": {}, "class_name": "Zeros"}, "epsilon": 0.001, "axis": 3, "beta_constraint": null}, "class_name": "BatchNormalization", "inbound_nodes": [[["conv2d_92", 0, 0, {}]]], "name": "batch_normalization_92"}, {"config": {"moving_variance_initializer": {"config": {}, "class_name": "Ones"}, "gamma_constraint": null, "momentum": 0.99, "beta_regularizer": null, "center": true, "gamma_regularizer": null, "trainable": true, "gamma_initializer": {"config": {}, "class_name": "Ones"}, "scale": false, "beta_initializer": {"config": {}, "class_name": "Zeros"}, "name": "batch_normalization_93", "moving_mean_initializer": {"config": {}, "class_name": "Zeros"}, "epsilon": 0.001, "axis": 3, "beta_constraint": null}, "class_name": "BatchNormalization", "inbound_nodes": [[["conv2d_93", 0, 0, {}]]], "name": "batch_normalization_93"}, {"config": {"data_format": "channels_last", "bias_initializer": {"config": {}, "class_name": "Zeros"}, "activity_regularizer": null, "use_bias": false, "padding": "same", "dilation_rate": [1, 1], "bias_constraint": null, "trainable": true, "kernel_regularizer": null, "filters": 192, "name": "conv2d_94", "kernel_constraint": null, "kernel_size": [1, 1], "activation": "linear", "kernel_initializer": {"config": {"scale": 1.0, "seed": null, "mode": "fan_avg", "distribution": "uniform"}, "class_name": "VarianceScaling"}, "strides": [1, 1], "bias_regularizer": null}, "class_name": "Conv2D", "inbound_nodes": [[["average_pooling2d_9", 0, 0, {}]]], "name": "conv2d_94"}, {"config": {"moving_variance_initializer": {"config": {}, "class_name": "Ones"}, "gamma_constraint": null, "momentum": 0.99, "beta_regularizer": null, "center": true, "gamma_regularizer": null, "trainable": true, "gamma_initializer": {"config": {}, "class_name": "Ones"}, "scale": false, "beta_initializer": {"config": {}, "class_name": "Zeros"}, "name": "batch_normalization_86", "moving_mean_initializer": {"config": {}, "class_name": "Zeros"}, "epsilon": 0.001, "axis": 3, "beta_constraint": null}, "class_name": "BatchNormalization", "inbound_nodes": [[["conv2d_86", 0, 0, {}]]], "name": "batch_normalization_86"}, {"config": {"trainable": true, "activation": "relu", "name": "activation_88"}, "class_name": "Activation", "inbound_nodes": [[["batch_normalization_88", 0, 0, {}]]], "name": "activation_88"}, {"config": {"trainable": true, "activation": "relu", "name": "activation_89"}, "class_name": "Activation", "inbound_nodes": [[["batch_normalization_89", 0, 0, {}]]], "name": "activation_89"}, {"config": {"trainable": true, "activation": "relu", "name": "activation_92"}, "class_name": "Activation", "inbound_nodes": [[["batch_normalization_92", 0, 0, {}]]], "name": "activation_92"}, {"config": {"trainable": true, "activation": "relu", "name": "activation_93"}, "class_name": "Activation", "inbound_nodes": [[["batch_normalization_93", 0, 0, {}]]], "name": "activation_93"}, {"config": {"moving_variance_initializer": {"config": {}, "class_name": "Ones"}, "gamma_constraint": null, "momentum": 0.99, "beta_regularizer": null, "center": true, "gamma_regularizer": null, "trainable": true, "gamma_initializer": {"config": {}, "class_name": "Ones"}, "scale": false, "beta_initializer": {"config": {}, "class_name": "Zeros"}, "name": "batch_normalization_94", "moving_mean_initializer": {"config": {}, "class_name": "Zeros"}, "epsilon": 0.001, "axis": 3, "beta_constraint": null}, "class_name": "BatchNormalization", "inbound_nodes": [[["conv2d_94", 0, 0, {}]]], "name": "batch_normalization_94"}, {"config": {"trainable": true, "activation": "relu", "name": "activation_86"}, "class_name": "Activation", "inbound_nodes": [[["batch_normalization_86", 0, 0, {}]]], "name": "activation_86"}, {"config": {"trainable": true, "axis": 3, "name": "mixed9_1"}, "class_name": "Concatenate", "inbound_nodes": [[["activation_88", 0, 0, {}], ["activation_89", 0, 0, {}]]], "name": "mixed9_1"}, {"config": {"trainable": true, "axis": 3, "name": "concatenate_2"}, "class_name": "Concatenate", "inbound_nodes": [[["activation_92", 0, 0, {}], ["activation_93", 0, 0, {}]]], "name": "concatenate_2"}, {"config": {"trainable": true, "activation": "relu", "name": "activation_94"}, "class_name": "Activation", "inbound_nodes": [[["batch_normalization_94", 0, 0, {}]]], "name": "activation_94"}, {"config": {"trainable": true, "axis": 3, "name": "mixed10"}, "class_name": "Concatenate", "inbound_nodes": [[["activation_86", 0, 0, {}], ["mixed9_1", 0, 0, {}], ["concatenate_2", 0, 0, {}], ["activation_94", 0, 0, {}]]], "name": "mixed10"}, {"config": {"trainable": true, "data_format": "channels_last", "name": "global_average_pooling2d_1"}, "class_name": "GlobalAveragePooling2D", "inbound_nodes": [[["mixed10", 0, 0, {}]]], "name": "global_average_pooling2d_1"}], "name": "inception_v3"}, "class_name": "Model", "name": "inception_v3", "inbound_nodes": [[["input_2", 0, 0, {}]], [["input_3", 0, 0, {}]]]}, {"config": {"trainable": true, "function": ["\u00e3\u0001\u0000\u0000\u0000\u0000\u0000\u0000\u0000\u0003\u0000\u0000\u0000\b\u0000\u0000\u0000C\u0000\u0000\u0000sM\u0000\u0000\u0000|\u0000\u0000\\\u0002\u0000}\u0001\u0000}\u0002\u0000t\u0000\u0000j\u0001\u0000t\u0000\u0000j\u0002\u0000t\u0000\u0000j\u0003\u0000t\u0000\u0000j\u0004\u0000|\u0001\u0000|\u0002\u0000\u0018\u0083\u0001\u0000d\u0001\u0000d\u0002\u0000d\u0003\u0000d\u0004\u0000\u0083\u0001\u0002t\u0000\u0000j\u0005\u0000\u0083\u0000\u0000\u0083\u0002\u0000\u0083\u0001\u0000S)\u0005N\u00da\u0004axis\u00e9\u0001\u0000\u0000\u0000\u00da\bkeepdimsT)\u0006\u00da\u0001K\u00da\u0004sqrt\u00da\u0007maximum\u00da\u0003sum\u00da\u0006square\u00da\u0007epsilon)\u0003\u00da\u0005vects\u00da\u0001x\u00da\u0001y\u00a9\u0000r\r\u0000\u0000\u0000\u00faJD:/Youngmin/Lecture/17_Spring/ML/Final Project/repo/implementation/main.py\u00da\u0012euclidean_distance\u0010\u0000\u0000\u0000s\u0004\u0000\u0000\u0000\u0000\u0001\f\u0001", null, null], "name": "lambda_1", "function_type": "lambda", "output_shape": ["\u00e3\u0001\u0000\u0000\u0000\u0000\u0000\u0000\u0000\u0003\u0000\u0000\u0000\u0002\u0000\u0000\u0000C\u0000\u0000\u0000s\u001a\u0000\u0000\u0000|\u0000\u0000\\\u0002\u0000}\u0001\u0000}\u0002\u0000|\u0001\u0000d\u0001\u0000\u0019d\u0002\u0000f\u0002\u0000S)\u0003N\u00e9\u0000\u0000\u0000\u0000\u00e9\u0001\u0000\u0000\u0000\u00a9\u0000)\u0003\u00da\u0006shapes\u00da\u0006shape1\u00da\u0006shape2r\u0003\u0000\u0000\u0000r\u0003\u0000\u0000\u0000\u00faJD:/Youngmin/Lecture/17_Spring/ML/Final Project/repo/implementation/main.py\u00da\u0016eucl_dist_output_shape\u0014\u0000\u0000\u0000s\u0004\u0000\u0000\u0000\u0000\u0001\f\u0001", null, null], "arguments": {}, "output_shape_type": "lambda"}, "class_name": "Lambda", "name": "lambda_1", "inbound_nodes": [[["inception_v3", 1, 0, {}], ["inception_v3", 2, 0, {}]]]}], "input_layers": [["input_2", 0, 0], ["input_3", 0, 0]], "output_layers": [["lambda_1", 0, 0]], "name": "model_1"}, "class_name": "Model", "keras_version": "2.0.2", "backend": "tensorflow"}